{
  "storage" : "model.espresso.weights",
  "properties" : {

  },
  "format_version" : 200,
  "layers" : [
    {
      "pad_r" : 0,
      "fused_relu" : 1,
      "fused_tanh" : 0,
      "pad_fill_mode" : 0,
      "pad_b" : 0,
      "pad_l" : 0,
      "top" : "relu_FeatureExtractor\/MobilenetV2\/Conv\/Relu6:0",
      "blob_weights" : 3,
      "K" : 3,
      "blob_biases" : 1,
      "stride_x" : 2,
      "name" : "FeatureExtractor\/MobilenetV2\/Conv\/BatchNorm\/batchnorm\/mul_1:0",
      "has_batch_norm" : 0,
      "type" : "convolution",
      "n_groups" : 1,
      "pad_t" : 0,
      "stride_y" : 2,
      "has_biases" : 1,
      "C" : 32,
      "bottom" : "image",
      "weights" : {

      },
      "Nx" : 3,
      "pad_mode" : 1,
      "pad_value" : 0,
      "Ny" : 3,
      "n_parallel" : 1
    },
    {
      "alpha" : -1,
      "bottom" : "relu_FeatureExtractor\/MobilenetV2\/Conv\/Relu6:0",
      "weights" : {

      },
      "mode" : 6,
      "top" : "relu_FeatureExtractor\/MobilenetV2\/Conv\/Relu6:0_neg",
      "type" : "activation",
      "name" : "relu_FeatureExtractor\/MobilenetV2\/Conv\/Relu6:0_neg",
      "beta" : 0
    },
    {
      "alpha" : -6,
      "bottom" : "relu_FeatureExtractor\/MobilenetV2\/Conv\/Relu6:0_neg",
      "operation" : 25,
      "weights" : {

      },
      "fused_relu" : 0,
      "top" : "relu_FeatureExtractor\/MobilenetV2\/Conv\/Relu6:0_clip",
      "type" : "elementwise",
      "name" : "relu_FeatureExtractor\/MobilenetV2\/Conv\/Relu6:0_clip",
      "beta" : 0
    },
    {
      "alpha" : -1,
      "bottom" : "relu_FeatureExtractor\/MobilenetV2\/Conv\/Relu6:0_clip",
      "weights" : {

      },
      "mode" : 6,
      "top" : "FeatureExtractor\/MobilenetV2\/Conv\/Relu6:0",
      "type" : "activation",
      "name" : "FeatureExtractor\/MobilenetV2\/Conv\/Relu6:0",
      "beta" : 0
    },
    {
      "pad_r" : 0,
      "fused_relu" : 1,
      "fused_tanh" : 0,
      "pad_fill_mode" : 0,
      "pad_b" : 0,
      "pad_l" : 0,
      "top" : "relu_FeatureExtractor\/MobilenetV2\/expanded_conv\/depthwise\/Relu6:0",
      "blob_weights" : 7,
      "K" : 32,
      "blob_biases" : 5,
      "name" : "FeatureExtractor\/MobilenetV2\/expanded_conv\/depthwise\/depthwise:0",
      "has_batch_norm" : 0,
      "type" : "convolution",
      "n_groups" : 32,
      "pad_t" : 0,
      "has_biases" : 1,
      "C" : 32,
      "bottom" : "FeatureExtractor\/MobilenetV2\/Conv\/Relu6:0",
      "weights" : {

      },
      "pad_mode" : 1,
      "Nx" : 3,
      "pad_value" : 0,
      "Ny" : 3,
      "n_parallel" : 1
    },
    {
      "alpha" : -1,
      "bottom" : "relu_FeatureExtractor\/MobilenetV2\/expanded_conv\/depthwise\/Relu6:0",
      "weights" : {

      },
      "mode" : 6,
      "top" : "relu_FeatureExtractor\/MobilenetV2\/expanded_conv\/depthwise\/Relu6:0_neg",
      "type" : "activation",
      "name" : "relu_FeatureExtractor\/MobilenetV2\/expanded_conv\/depthwise\/Relu6:0_neg",
      "beta" : 0
    },
    {
      "alpha" : -6,
      "bottom" : "relu_FeatureExtractor\/MobilenetV2\/expanded_conv\/depthwise\/Relu6:0_neg",
      "operation" : 25,
      "weights" : {

      },
      "fused_relu" : 0,
      "top" : "relu_FeatureExtractor\/MobilenetV2\/expanded_conv\/depthwise\/Relu6:0_clip",
      "type" : "elementwise",
      "name" : "relu_FeatureExtractor\/MobilenetV2\/expanded_conv\/depthwise\/Relu6:0_clip",
      "beta" : 0
    },
    {
      "alpha" : -1,
      "bottom" : "relu_FeatureExtractor\/MobilenetV2\/expanded_conv\/depthwise\/Relu6:0_clip",
      "weights" : {

      },
      "mode" : 6,
      "top" : "FeatureExtractor\/MobilenetV2\/expanded_conv\/depthwise\/Relu6:0",
      "type" : "activation",
      "name" : "FeatureExtractor\/MobilenetV2\/expanded_conv\/depthwise\/Relu6:0",
      "beta" : 0
    },
    {
      "pad_r" : 0,
      "fused_relu" : 0,
      "fused_tanh" : 0,
      "pad_fill_mode" : 0,
      "pad_b" : 0,
      "pad_l" : 0,
      "top" : "FeatureExtractor\/MobilenetV2\/expanded_conv\/project\/BatchNorm\/batchnorm\/add_1:0",
      "blob_weights" : 11,
      "K" : 32,
      "blob_biases" : 9,
      "name" : "FeatureExtractor\/MobilenetV2\/expanded_conv\/project\/BatchNorm\/batchnorm\/mul_1:0",
      "has_batch_norm" : 0,
      "type" : "convolution",
      "n_groups" : 1,
      "pad_t" : 0,
      "has_biases" : 1,
      "C" : 16,
      "bottom" : "FeatureExtractor\/MobilenetV2\/expanded_conv\/depthwise\/Relu6:0",
      "weights" : {

      },
      "pad_mode" : 1,
      "Nx" : 1,
      "pad_value" : 0,
      "Ny" : 1,
      "n_parallel" : 1
    },
    {
      "pad_r" : 0,
      "fused_relu" : 1,
      "fused_tanh" : 0,
      "pad_fill_mode" : 0,
      "pad_b" : 0,
      "pad_l" : 0,
      "top" : "relu_FeatureExtractor\/MobilenetV2\/expanded_conv_1\/expand\/Relu6:0",
      "blob_weights" : 15,
      "K" : 16,
      "blob_biases" : 13,
      "name" : "FeatureExtractor\/MobilenetV2\/expanded_conv_1\/expand\/BatchNorm\/batchnorm\/mul_1:0",
      "has_batch_norm" : 0,
      "type" : "convolution",
      "n_groups" : 1,
      "pad_t" : 0,
      "has_biases" : 1,
      "C" : 96,
      "bottom" : "FeatureExtractor\/MobilenetV2\/expanded_conv\/project\/BatchNorm\/batchnorm\/add_1:0",
      "weights" : {

      },
      "pad_mode" : 1,
      "Nx" : 1,
      "pad_value" : 0,
      "Ny" : 1,
      "n_parallel" : 1
    },
    {
      "alpha" : -1,
      "bottom" : "relu_FeatureExtractor\/MobilenetV2\/expanded_conv_1\/expand\/Relu6:0",
      "weights" : {

      },
      "mode" : 6,
      "top" : "relu_FeatureExtractor\/MobilenetV2\/expanded_conv_1\/expand\/Relu6:0_neg",
      "type" : "activation",
      "name" : "relu_FeatureExtractor\/MobilenetV2\/expanded_conv_1\/expand\/Relu6:0_neg",
      "beta" : 0
    },
    {
      "alpha" : -6,
      "bottom" : "relu_FeatureExtractor\/MobilenetV2\/expanded_conv_1\/expand\/Relu6:0_neg",
      "operation" : 25,
      "weights" : {

      },
      "fused_relu" : 0,
      "top" : "relu_FeatureExtractor\/MobilenetV2\/expanded_conv_1\/expand\/Relu6:0_clip",
      "type" : "elementwise",
      "name" : "relu_FeatureExtractor\/MobilenetV2\/expanded_conv_1\/expand\/Relu6:0_clip",
      "beta" : 0
    },
    {
      "alpha" : -1,
      "bottom" : "relu_FeatureExtractor\/MobilenetV2\/expanded_conv_1\/expand\/Relu6:0_clip",
      "weights" : {

      },
      "mode" : 6,
      "top" : "FeatureExtractor\/MobilenetV2\/expanded_conv_1\/expand\/Relu6:0",
      "type" : "activation",
      "name" : "FeatureExtractor\/MobilenetV2\/expanded_conv_1\/expand\/Relu6:0",
      "beta" : 0
    },
    {
      "pad_r" : 0,
      "fused_relu" : 1,
      "fused_tanh" : 0,
      "pad_fill_mode" : 0,
      "pad_b" : 0,
      "pad_l" : 0,
      "top" : "relu_FeatureExtractor\/MobilenetV2\/expanded_conv_1\/depthwise\/Relu6:0",
      "blob_weights" : 19,
      "K" : 96,
      "blob_biases" : 17,
      "stride_x" : 2,
      "name" : "FeatureExtractor\/MobilenetV2\/expanded_conv_1\/depthwise\/depthwise:0",
      "has_batch_norm" : 0,
      "type" : "convolution",
      "n_groups" : 96,
      "pad_t" : 0,
      "stride_y" : 2,
      "has_biases" : 1,
      "C" : 96,
      "bottom" : "FeatureExtractor\/MobilenetV2\/expanded_conv_1\/expand\/Relu6:0",
      "weights" : {

      },
      "Nx" : 3,
      "pad_mode" : 1,
      "pad_value" : 0,
      "Ny" : 3,
      "n_parallel" : 1
    },
    {
      "alpha" : -1,
      "bottom" : "relu_FeatureExtractor\/MobilenetV2\/expanded_conv_1\/depthwise\/Relu6:0",
      "weights" : {

      },
      "mode" : 6,
      "top" : "relu_FeatureExtractor\/MobilenetV2\/expanded_conv_1\/depthwise\/Relu6:0_neg",
      "type" : "activation",
      "name" : "relu_FeatureExtractor\/MobilenetV2\/expanded_conv_1\/depthwise\/Relu6:0_neg",
      "beta" : 0
    },
    {
      "alpha" : -6,
      "bottom" : "relu_FeatureExtractor\/MobilenetV2\/expanded_conv_1\/depthwise\/Relu6:0_neg",
      "operation" : 25,
      "weights" : {

      },
      "fused_relu" : 0,
      "top" : "relu_FeatureExtractor\/MobilenetV2\/expanded_conv_1\/depthwise\/Relu6:0_clip",
      "type" : "elementwise",
      "name" : "relu_FeatureExtractor\/MobilenetV2\/expanded_conv_1\/depthwise\/Relu6:0_clip",
      "beta" : 0
    },
    {
      "alpha" : -1,
      "bottom" : "relu_FeatureExtractor\/MobilenetV2\/expanded_conv_1\/depthwise\/Relu6:0_clip",
      "weights" : {

      },
      "mode" : 6,
      "top" : "FeatureExtractor\/MobilenetV2\/expanded_conv_1\/depthwise\/Relu6:0",
      "type" : "activation",
      "name" : "FeatureExtractor\/MobilenetV2\/expanded_conv_1\/depthwise\/Relu6:0",
      "beta" : 0
    },
    {
      "pad_r" : 0,
      "fused_relu" : 0,
      "fused_tanh" : 0,
      "pad_fill_mode" : 0,
      "pad_b" : 0,
      "pad_l" : 0,
      "top" : "FeatureExtractor\/MobilenetV2\/expanded_conv_1\/project\/BatchNorm\/batchnorm\/add_1:0",
      "blob_weights" : 23,
      "K" : 96,
      "blob_biases" : 21,
      "name" : "FeatureExtractor\/MobilenetV2\/expanded_conv_1\/project\/BatchNorm\/batchnorm\/mul_1:0",
      "has_batch_norm" : 0,
      "type" : "convolution",
      "n_groups" : 1,
      "pad_t" : 0,
      "has_biases" : 1,
      "C" : 24,
      "bottom" : "FeatureExtractor\/MobilenetV2\/expanded_conv_1\/depthwise\/Relu6:0",
      "weights" : {

      },
      "pad_mode" : 1,
      "Nx" : 1,
      "pad_value" : 0,
      "Ny" : 1,
      "n_parallel" : 1
    },
    {
      "pad_r" : 0,
      "fused_relu" : 1,
      "fused_tanh" : 0,
      "pad_fill_mode" : 0,
      "pad_b" : 0,
      "pad_l" : 0,
      "top" : "relu_FeatureExtractor\/MobilenetV2\/expanded_conv_2\/expand\/Relu6:0",
      "blob_weights" : 27,
      "K" : 24,
      "blob_biases" : 25,
      "name" : "FeatureExtractor\/MobilenetV2\/expanded_conv_2\/expand\/BatchNorm\/batchnorm\/mul_1:0",
      "has_batch_norm" : 0,
      "type" : "convolution",
      "n_groups" : 1,
      "pad_t" : 0,
      "has_biases" : 1,
      "C" : 144,
      "bottom" : "FeatureExtractor\/MobilenetV2\/expanded_conv_1\/project\/BatchNorm\/batchnorm\/add_1:0",
      "weights" : {

      },
      "pad_mode" : 1,
      "Nx" : 1,
      "pad_value" : 0,
      "Ny" : 1,
      "n_parallel" : 1
    },
    {
      "alpha" : -1,
      "bottom" : "relu_FeatureExtractor\/MobilenetV2\/expanded_conv_2\/expand\/Relu6:0",
      "weights" : {

      },
      "mode" : 6,
      "top" : "relu_FeatureExtractor\/MobilenetV2\/expanded_conv_2\/expand\/Relu6:0_neg",
      "type" : "activation",
      "name" : "relu_FeatureExtractor\/MobilenetV2\/expanded_conv_2\/expand\/Relu6:0_neg",
      "beta" : 0
    },
    {
      "alpha" : -6,
      "bottom" : "relu_FeatureExtractor\/MobilenetV2\/expanded_conv_2\/expand\/Relu6:0_neg",
      "operation" : 25,
      "weights" : {

      },
      "fused_relu" : 0,
      "top" : "relu_FeatureExtractor\/MobilenetV2\/expanded_conv_2\/expand\/Relu6:0_clip",
      "type" : "elementwise",
      "name" : "relu_FeatureExtractor\/MobilenetV2\/expanded_conv_2\/expand\/Relu6:0_clip",
      "beta" : 0
    },
    {
      "alpha" : -1,
      "bottom" : "relu_FeatureExtractor\/MobilenetV2\/expanded_conv_2\/expand\/Relu6:0_clip",
      "weights" : {

      },
      "mode" : 6,
      "top" : "FeatureExtractor\/MobilenetV2\/expanded_conv_2\/expand\/Relu6:0",
      "type" : "activation",
      "name" : "FeatureExtractor\/MobilenetV2\/expanded_conv_2\/expand\/Relu6:0",
      "beta" : 0
    },
    {
      "pad_r" : 0,
      "fused_relu" : 1,
      "fused_tanh" : 0,
      "pad_fill_mode" : 0,
      "pad_b" : 0,
      "pad_l" : 0,
      "top" : "relu_FeatureExtractor\/MobilenetV2\/expanded_conv_2\/depthwise\/Relu6:0",
      "blob_weights" : 31,
      "K" : 144,
      "blob_biases" : 29,
      "name" : "FeatureExtractor\/MobilenetV2\/expanded_conv_2\/depthwise\/depthwise:0",
      "has_batch_norm" : 0,
      "type" : "convolution",
      "n_groups" : 144,
      "pad_t" : 0,
      "has_biases" : 1,
      "C" : 144,
      "bottom" : "FeatureExtractor\/MobilenetV2\/expanded_conv_2\/expand\/Relu6:0",
      "weights" : {

      },
      "pad_mode" : 1,
      "Nx" : 3,
      "pad_value" : 0,
      "Ny" : 3,
      "n_parallel" : 1
    },
    {
      "alpha" : -1,
      "bottom" : "relu_FeatureExtractor\/MobilenetV2\/expanded_conv_2\/depthwise\/Relu6:0",
      "weights" : {

      },
      "mode" : 6,
      "top" : "relu_FeatureExtractor\/MobilenetV2\/expanded_conv_2\/depthwise\/Relu6:0_neg",
      "type" : "activation",
      "name" : "relu_FeatureExtractor\/MobilenetV2\/expanded_conv_2\/depthwise\/Relu6:0_neg",
      "beta" : 0
    },
    {
      "alpha" : -6,
      "bottom" : "relu_FeatureExtractor\/MobilenetV2\/expanded_conv_2\/depthwise\/Relu6:0_neg",
      "operation" : 25,
      "weights" : {

      },
      "fused_relu" : 0,
      "top" : "relu_FeatureExtractor\/MobilenetV2\/expanded_conv_2\/depthwise\/Relu6:0_clip",
      "type" : "elementwise",
      "name" : "relu_FeatureExtractor\/MobilenetV2\/expanded_conv_2\/depthwise\/Relu6:0_clip",
      "beta" : 0
    },
    {
      "alpha" : -1,
      "bottom" : "relu_FeatureExtractor\/MobilenetV2\/expanded_conv_2\/depthwise\/Relu6:0_clip",
      "weights" : {

      },
      "mode" : 6,
      "top" : "FeatureExtractor\/MobilenetV2\/expanded_conv_2\/depthwise\/Relu6:0",
      "type" : "activation",
      "name" : "FeatureExtractor\/MobilenetV2\/expanded_conv_2\/depthwise\/Relu6:0",
      "beta" : 0
    },
    {
      "pad_r" : 0,
      "fused_relu" : 0,
      "fused_tanh" : 0,
      "pad_fill_mode" : 0,
      "pad_b" : 0,
      "pad_l" : 0,
      "top" : "FeatureExtractor\/MobilenetV2\/expanded_conv_2\/project\/BatchNorm\/batchnorm\/add_1:0",
      "blob_weights" : 35,
      "K" : 144,
      "blob_biases" : 33,
      "name" : "FeatureExtractor\/MobilenetV2\/expanded_conv_2\/project\/BatchNorm\/batchnorm\/mul_1:0",
      "has_batch_norm" : 0,
      "type" : "convolution",
      "n_groups" : 1,
      "pad_t" : 0,
      "has_biases" : 1,
      "C" : 24,
      "bottom" : "FeatureExtractor\/MobilenetV2\/expanded_conv_2\/depthwise\/Relu6:0",
      "weights" : {

      },
      "pad_mode" : 1,
      "Nx" : 1,
      "pad_value" : 0,
      "Ny" : 1,
      "n_parallel" : 1
    },
    {
      "alpha" : 1,
      "bottom" : "FeatureExtractor\/MobilenetV2\/expanded_conv_2\/project\/BatchNorm\/batchnorm\/add_1:0,FeatureExtractor\/MobilenetV2\/expanded_conv_1\/project\/BatchNorm\/batchnorm\/add_1:0",
      "operation" : 0,
      "weights" : {

      },
      "fused_relu" : 0,
      "top" : "FeatureExtractor\/MobilenetV2\/expanded_conv_2\/add:0",
      "type" : "elementwise",
      "name" : "FeatureExtractor\/MobilenetV2\/expanded_conv_2\/add:0",
      "beta" : 0
    },
    {
      "pad_r" : 0,
      "fused_relu" : 1,
      "fused_tanh" : 0,
      "pad_fill_mode" : 0,
      "pad_b" : 0,
      "pad_l" : 0,
      "top" : "relu_FeatureExtractor\/MobilenetV2\/expanded_conv_3\/expand\/Relu6:0",
      "blob_weights" : 39,
      "K" : 24,
      "blob_biases" : 37,
      "name" : "FeatureExtractor\/MobilenetV2\/expanded_conv_3\/expand\/BatchNorm\/batchnorm\/mul_1:0",
      "has_batch_norm" : 0,
      "type" : "convolution",
      "n_groups" : 1,
      "pad_t" : 0,
      "has_biases" : 1,
      "C" : 144,
      "bottom" : "FeatureExtractor\/MobilenetV2\/expanded_conv_2\/add:0",
      "weights" : {

      },
      "pad_mode" : 1,
      "Nx" : 1,
      "pad_value" : 0,
      "Ny" : 1,
      "n_parallel" : 1
    },
    {
      "alpha" : -1,
      "bottom" : "relu_FeatureExtractor\/MobilenetV2\/expanded_conv_3\/expand\/Relu6:0",
      "weights" : {

      },
      "mode" : 6,
      "top" : "relu_FeatureExtractor\/MobilenetV2\/expanded_conv_3\/expand\/Relu6:0_neg",
      "type" : "activation",
      "name" : "relu_FeatureExtractor\/MobilenetV2\/expanded_conv_3\/expand\/Relu6:0_neg",
      "beta" : 0
    },
    {
      "alpha" : -6,
      "bottom" : "relu_FeatureExtractor\/MobilenetV2\/expanded_conv_3\/expand\/Relu6:0_neg",
      "operation" : 25,
      "weights" : {

      },
      "fused_relu" : 0,
      "top" : "relu_FeatureExtractor\/MobilenetV2\/expanded_conv_3\/expand\/Relu6:0_clip",
      "type" : "elementwise",
      "name" : "relu_FeatureExtractor\/MobilenetV2\/expanded_conv_3\/expand\/Relu6:0_clip",
      "beta" : 0
    },
    {
      "alpha" : -1,
      "bottom" : "relu_FeatureExtractor\/MobilenetV2\/expanded_conv_3\/expand\/Relu6:0_clip",
      "weights" : {

      },
      "mode" : 6,
      "top" : "FeatureExtractor\/MobilenetV2\/expanded_conv_3\/expand\/Relu6:0",
      "type" : "activation",
      "name" : "FeatureExtractor\/MobilenetV2\/expanded_conv_3\/expand\/Relu6:0",
      "beta" : 0
    },
    {
      "pad_r" : 0,
      "fused_relu" : 1,
      "fused_tanh" : 0,
      "pad_fill_mode" : 0,
      "pad_b" : 0,
      "pad_l" : 0,
      "top" : "relu_FeatureExtractor\/MobilenetV2\/expanded_conv_3\/depthwise\/Relu6:0",
      "blob_weights" : 43,
      "K" : 144,
      "blob_biases" : 41,
      "stride_x" : 2,
      "name" : "FeatureExtractor\/MobilenetV2\/expanded_conv_3\/depthwise\/depthwise:0",
      "has_batch_norm" : 0,
      "type" : "convolution",
      "n_groups" : 144,
      "pad_t" : 0,
      "stride_y" : 2,
      "has_biases" : 1,
      "C" : 144,
      "bottom" : "FeatureExtractor\/MobilenetV2\/expanded_conv_3\/expand\/Relu6:0",
      "weights" : {

      },
      "Nx" : 3,
      "pad_mode" : 1,
      "pad_value" : 0,
      "Ny" : 3,
      "n_parallel" : 1
    },
    {
      "alpha" : -1,
      "bottom" : "relu_FeatureExtractor\/MobilenetV2\/expanded_conv_3\/depthwise\/Relu6:0",
      "weights" : {

      },
      "mode" : 6,
      "top" : "relu_FeatureExtractor\/MobilenetV2\/expanded_conv_3\/depthwise\/Relu6:0_neg",
      "type" : "activation",
      "name" : "relu_FeatureExtractor\/MobilenetV2\/expanded_conv_3\/depthwise\/Relu6:0_neg",
      "beta" : 0
    },
    {
      "alpha" : -6,
      "bottom" : "relu_FeatureExtractor\/MobilenetV2\/expanded_conv_3\/depthwise\/Relu6:0_neg",
      "operation" : 25,
      "weights" : {

      },
      "fused_relu" : 0,
      "top" : "relu_FeatureExtractor\/MobilenetV2\/expanded_conv_3\/depthwise\/Relu6:0_clip",
      "type" : "elementwise",
      "name" : "relu_FeatureExtractor\/MobilenetV2\/expanded_conv_3\/depthwise\/Relu6:0_clip",
      "beta" : 0
    },
    {
      "alpha" : -1,
      "bottom" : "relu_FeatureExtractor\/MobilenetV2\/expanded_conv_3\/depthwise\/Relu6:0_clip",
      "weights" : {

      },
      "mode" : 6,
      "top" : "FeatureExtractor\/MobilenetV2\/expanded_conv_3\/depthwise\/Relu6:0",
      "type" : "activation",
      "name" : "FeatureExtractor\/MobilenetV2\/expanded_conv_3\/depthwise\/Relu6:0",
      "beta" : 0
    },
    {
      "pad_r" : 0,
      "fused_relu" : 0,
      "fused_tanh" : 0,
      "pad_fill_mode" : 0,
      "pad_b" : 0,
      "pad_l" : 0,
      "top" : "FeatureExtractor\/MobilenetV2\/expanded_conv_3\/project\/BatchNorm\/batchnorm\/add_1:0",
      "blob_weights" : 47,
      "K" : 144,
      "blob_biases" : 45,
      "name" : "FeatureExtractor\/MobilenetV2\/expanded_conv_3\/project\/BatchNorm\/batchnorm\/mul_1:0",
      "has_batch_norm" : 0,
      "type" : "convolution",
      "n_groups" : 1,
      "pad_t" : 0,
      "has_biases" : 1,
      "C" : 32,
      "bottom" : "FeatureExtractor\/MobilenetV2\/expanded_conv_3\/depthwise\/Relu6:0",
      "weights" : {

      },
      "pad_mode" : 1,
      "Nx" : 1,
      "pad_value" : 0,
      "Ny" : 1,
      "n_parallel" : 1
    },
    {
      "pad_r" : 0,
      "fused_relu" : 1,
      "fused_tanh" : 0,
      "pad_fill_mode" : 0,
      "pad_b" : 0,
      "pad_l" : 0,
      "top" : "relu_FeatureExtractor\/MobilenetV2\/expanded_conv_4\/expand\/Relu6:0",
      "blob_weights" : 51,
      "K" : 32,
      "blob_biases" : 49,
      "name" : "FeatureExtractor\/MobilenetV2\/expanded_conv_4\/expand\/BatchNorm\/batchnorm\/mul_1:0",
      "has_batch_norm" : 0,
      "type" : "convolution",
      "n_groups" : 1,
      "pad_t" : 0,
      "has_biases" : 1,
      "C" : 192,
      "bottom" : "FeatureExtractor\/MobilenetV2\/expanded_conv_3\/project\/BatchNorm\/batchnorm\/add_1:0",
      "weights" : {

      },
      "pad_mode" : 1,
      "Nx" : 1,
      "pad_value" : 0,
      "Ny" : 1,
      "n_parallel" : 1
    },
    {
      "alpha" : -1,
      "bottom" : "relu_FeatureExtractor\/MobilenetV2\/expanded_conv_4\/expand\/Relu6:0",
      "weights" : {

      },
      "mode" : 6,
      "top" : "relu_FeatureExtractor\/MobilenetV2\/expanded_conv_4\/expand\/Relu6:0_neg",
      "type" : "activation",
      "name" : "relu_FeatureExtractor\/MobilenetV2\/expanded_conv_4\/expand\/Relu6:0_neg",
      "beta" : 0
    },
    {
      "alpha" : -6,
      "bottom" : "relu_FeatureExtractor\/MobilenetV2\/expanded_conv_4\/expand\/Relu6:0_neg",
      "operation" : 25,
      "weights" : {

      },
      "fused_relu" : 0,
      "top" : "relu_FeatureExtractor\/MobilenetV2\/expanded_conv_4\/expand\/Relu6:0_clip",
      "type" : "elementwise",
      "name" : "relu_FeatureExtractor\/MobilenetV2\/expanded_conv_4\/expand\/Relu6:0_clip",
      "beta" : 0
    },
    {
      "alpha" : -1,
      "bottom" : "relu_FeatureExtractor\/MobilenetV2\/expanded_conv_4\/expand\/Relu6:0_clip",
      "weights" : {

      },
      "mode" : 6,
      "top" : "FeatureExtractor\/MobilenetV2\/expanded_conv_4\/expand\/Relu6:0",
      "type" : "activation",
      "name" : "FeatureExtractor\/MobilenetV2\/expanded_conv_4\/expand\/Relu6:0",
      "beta" : 0
    },
    {
      "pad_r" : 0,
      "fused_relu" : 1,
      "fused_tanh" : 0,
      "pad_fill_mode" : 0,
      "pad_b" : 0,
      "pad_l" : 0,
      "top" : "relu_FeatureExtractor\/MobilenetV2\/expanded_conv_4\/depthwise\/Relu6:0",
      "blob_weights" : 55,
      "K" : 192,
      "blob_biases" : 53,
      "name" : "FeatureExtractor\/MobilenetV2\/expanded_conv_4\/depthwise\/depthwise:0",
      "has_batch_norm" : 0,
      "type" : "convolution",
      "n_groups" : 192,
      "pad_t" : 0,
      "has_biases" : 1,
      "C" : 192,
      "bottom" : "FeatureExtractor\/MobilenetV2\/expanded_conv_4\/expand\/Relu6:0",
      "weights" : {

      },
      "pad_mode" : 1,
      "Nx" : 3,
      "pad_value" : 0,
      "Ny" : 3,
      "n_parallel" : 1
    },
    {
      "alpha" : -1,
      "bottom" : "relu_FeatureExtractor\/MobilenetV2\/expanded_conv_4\/depthwise\/Relu6:0",
      "weights" : {

      },
      "mode" : 6,
      "top" : "relu_FeatureExtractor\/MobilenetV2\/expanded_conv_4\/depthwise\/Relu6:0_neg",
      "type" : "activation",
      "name" : "relu_FeatureExtractor\/MobilenetV2\/expanded_conv_4\/depthwise\/Relu6:0_neg",
      "beta" : 0
    },
    {
      "alpha" : -6,
      "bottom" : "relu_FeatureExtractor\/MobilenetV2\/expanded_conv_4\/depthwise\/Relu6:0_neg",
      "operation" : 25,
      "weights" : {

      },
      "fused_relu" : 0,
      "top" : "relu_FeatureExtractor\/MobilenetV2\/expanded_conv_4\/depthwise\/Relu6:0_clip",
      "type" : "elementwise",
      "name" : "relu_FeatureExtractor\/MobilenetV2\/expanded_conv_4\/depthwise\/Relu6:0_clip",
      "beta" : 0
    },
    {
      "alpha" : -1,
      "bottom" : "relu_FeatureExtractor\/MobilenetV2\/expanded_conv_4\/depthwise\/Relu6:0_clip",
      "weights" : {

      },
      "mode" : 6,
      "top" : "FeatureExtractor\/MobilenetV2\/expanded_conv_4\/depthwise\/Relu6:0",
      "type" : "activation",
      "name" : "FeatureExtractor\/MobilenetV2\/expanded_conv_4\/depthwise\/Relu6:0",
      "beta" : 0
    },
    {
      "pad_r" : 0,
      "fused_relu" : 0,
      "fused_tanh" : 0,
      "pad_fill_mode" : 0,
      "pad_b" : 0,
      "pad_l" : 0,
      "top" : "FeatureExtractor\/MobilenetV2\/expanded_conv_4\/project\/BatchNorm\/batchnorm\/add_1:0",
      "blob_weights" : 59,
      "K" : 192,
      "blob_biases" : 57,
      "name" : "FeatureExtractor\/MobilenetV2\/expanded_conv_4\/project\/BatchNorm\/batchnorm\/mul_1:0",
      "has_batch_norm" : 0,
      "type" : "convolution",
      "n_groups" : 1,
      "pad_t" : 0,
      "has_biases" : 1,
      "C" : 32,
      "bottom" : "FeatureExtractor\/MobilenetV2\/expanded_conv_4\/depthwise\/Relu6:0",
      "weights" : {

      },
      "pad_mode" : 1,
      "Nx" : 1,
      "pad_value" : 0,
      "Ny" : 1,
      "n_parallel" : 1
    },
    {
      "alpha" : 1,
      "bottom" : "FeatureExtractor\/MobilenetV2\/expanded_conv_4\/project\/BatchNorm\/batchnorm\/add_1:0,FeatureExtractor\/MobilenetV2\/expanded_conv_3\/project\/BatchNorm\/batchnorm\/add_1:0",
      "operation" : 0,
      "weights" : {

      },
      "fused_relu" : 0,
      "top" : "FeatureExtractor\/MobilenetV2\/expanded_conv_4\/add:0",
      "type" : "elementwise",
      "name" : "FeatureExtractor\/MobilenetV2\/expanded_conv_4\/add:0",
      "beta" : 0
    },
    {
      "pad_r" : 0,
      "fused_relu" : 1,
      "fused_tanh" : 0,
      "pad_fill_mode" : 0,
      "pad_b" : 0,
      "pad_l" : 0,
      "top" : "relu_FeatureExtractor\/MobilenetV2\/expanded_conv_5\/expand\/Relu6:0",
      "blob_weights" : 63,
      "K" : 32,
      "blob_biases" : 61,
      "name" : "FeatureExtractor\/MobilenetV2\/expanded_conv_5\/expand\/BatchNorm\/batchnorm\/mul_1:0",
      "has_batch_norm" : 0,
      "type" : "convolution",
      "n_groups" : 1,
      "pad_t" : 0,
      "has_biases" : 1,
      "C" : 192,
      "bottom" : "FeatureExtractor\/MobilenetV2\/expanded_conv_4\/add:0",
      "weights" : {

      },
      "pad_mode" : 1,
      "Nx" : 1,
      "pad_value" : 0,
      "Ny" : 1,
      "n_parallel" : 1
    },
    {
      "alpha" : -1,
      "bottom" : "relu_FeatureExtractor\/MobilenetV2\/expanded_conv_5\/expand\/Relu6:0",
      "weights" : {

      },
      "mode" : 6,
      "top" : "relu_FeatureExtractor\/MobilenetV2\/expanded_conv_5\/expand\/Relu6:0_neg",
      "type" : "activation",
      "name" : "relu_FeatureExtractor\/MobilenetV2\/expanded_conv_5\/expand\/Relu6:0_neg",
      "beta" : 0
    },
    {
      "alpha" : -6,
      "bottom" : "relu_FeatureExtractor\/MobilenetV2\/expanded_conv_5\/expand\/Relu6:0_neg",
      "operation" : 25,
      "weights" : {

      },
      "fused_relu" : 0,
      "top" : "relu_FeatureExtractor\/MobilenetV2\/expanded_conv_5\/expand\/Relu6:0_clip",
      "type" : "elementwise",
      "name" : "relu_FeatureExtractor\/MobilenetV2\/expanded_conv_5\/expand\/Relu6:0_clip",
      "beta" : 0
    },
    {
      "alpha" : -1,
      "bottom" : "relu_FeatureExtractor\/MobilenetV2\/expanded_conv_5\/expand\/Relu6:0_clip",
      "weights" : {

      },
      "mode" : 6,
      "top" : "FeatureExtractor\/MobilenetV2\/expanded_conv_5\/expand\/Relu6:0",
      "type" : "activation",
      "name" : "FeatureExtractor\/MobilenetV2\/expanded_conv_5\/expand\/Relu6:0",
      "beta" : 0
    },
    {
      "pad_r" : 0,
      "fused_relu" : 1,
      "fused_tanh" : 0,
      "pad_fill_mode" : 0,
      "pad_b" : 0,
      "pad_l" : 0,
      "top" : "relu_FeatureExtractor\/MobilenetV2\/expanded_conv_5\/depthwise\/Relu6:0",
      "blob_weights" : 67,
      "K" : 192,
      "blob_biases" : 65,
      "name" : "FeatureExtractor\/MobilenetV2\/expanded_conv_5\/depthwise\/depthwise:0",
      "has_batch_norm" : 0,
      "type" : "convolution",
      "n_groups" : 192,
      "pad_t" : 0,
      "has_biases" : 1,
      "C" : 192,
      "bottom" : "FeatureExtractor\/MobilenetV2\/expanded_conv_5\/expand\/Relu6:0",
      "weights" : {

      },
      "pad_mode" : 1,
      "Nx" : 3,
      "pad_value" : 0,
      "Ny" : 3,
      "n_parallel" : 1
    },
    {
      "alpha" : -1,
      "bottom" : "relu_FeatureExtractor\/MobilenetV2\/expanded_conv_5\/depthwise\/Relu6:0",
      "weights" : {

      },
      "mode" : 6,
      "top" : "relu_FeatureExtractor\/MobilenetV2\/expanded_conv_5\/depthwise\/Relu6:0_neg",
      "type" : "activation",
      "name" : "relu_FeatureExtractor\/MobilenetV2\/expanded_conv_5\/depthwise\/Relu6:0_neg",
      "beta" : 0
    },
    {
      "alpha" : -6,
      "bottom" : "relu_FeatureExtractor\/MobilenetV2\/expanded_conv_5\/depthwise\/Relu6:0_neg",
      "operation" : 25,
      "weights" : {

      },
      "fused_relu" : 0,
      "top" : "relu_FeatureExtractor\/MobilenetV2\/expanded_conv_5\/depthwise\/Relu6:0_clip",
      "type" : "elementwise",
      "name" : "relu_FeatureExtractor\/MobilenetV2\/expanded_conv_5\/depthwise\/Relu6:0_clip",
      "beta" : 0
    },
    {
      "alpha" : -1,
      "bottom" : "relu_FeatureExtractor\/MobilenetV2\/expanded_conv_5\/depthwise\/Relu6:0_clip",
      "weights" : {

      },
      "mode" : 6,
      "top" : "FeatureExtractor\/MobilenetV2\/expanded_conv_5\/depthwise\/Relu6:0",
      "type" : "activation",
      "name" : "FeatureExtractor\/MobilenetV2\/expanded_conv_5\/depthwise\/Relu6:0",
      "beta" : 0
    },
    {
      "pad_r" : 0,
      "fused_relu" : 0,
      "fused_tanh" : 0,
      "pad_fill_mode" : 0,
      "pad_b" : 0,
      "pad_l" : 0,
      "top" : "FeatureExtractor\/MobilenetV2\/expanded_conv_5\/project\/BatchNorm\/batchnorm\/add_1:0",
      "blob_weights" : 71,
      "K" : 192,
      "blob_biases" : 69,
      "name" : "FeatureExtractor\/MobilenetV2\/expanded_conv_5\/project\/BatchNorm\/batchnorm\/mul_1:0",
      "has_batch_norm" : 0,
      "type" : "convolution",
      "n_groups" : 1,
      "pad_t" : 0,
      "has_biases" : 1,
      "C" : 32,
      "bottom" : "FeatureExtractor\/MobilenetV2\/expanded_conv_5\/depthwise\/Relu6:0",
      "weights" : {

      },
      "pad_mode" : 1,
      "Nx" : 1,
      "pad_value" : 0,
      "Ny" : 1,
      "n_parallel" : 1
    },
    {
      "alpha" : 1,
      "bottom" : "FeatureExtractor\/MobilenetV2\/expanded_conv_5\/project\/BatchNorm\/batchnorm\/add_1:0,FeatureExtractor\/MobilenetV2\/expanded_conv_4\/add:0",
      "operation" : 0,
      "weights" : {

      },
      "fused_relu" : 0,
      "top" : "FeatureExtractor\/MobilenetV2\/expanded_conv_5\/add:0",
      "type" : "elementwise",
      "name" : "FeatureExtractor\/MobilenetV2\/expanded_conv_5\/add:0",
      "beta" : 0
    },
    {
      "pad_r" : 0,
      "fused_relu" : 1,
      "fused_tanh" : 0,
      "pad_fill_mode" : 0,
      "pad_b" : 0,
      "pad_l" : 0,
      "top" : "relu_FeatureExtractor\/MobilenetV2\/expanded_conv_6\/expand\/Relu6:0",
      "blob_weights" : 75,
      "K" : 32,
      "blob_biases" : 73,
      "name" : "FeatureExtractor\/MobilenetV2\/expanded_conv_6\/expand\/BatchNorm\/batchnorm\/mul_1:0",
      "has_batch_norm" : 0,
      "type" : "convolution",
      "n_groups" : 1,
      "pad_t" : 0,
      "has_biases" : 1,
      "C" : 192,
      "bottom" : "FeatureExtractor\/MobilenetV2\/expanded_conv_5\/add:0",
      "weights" : {

      },
      "pad_mode" : 1,
      "Nx" : 1,
      "pad_value" : 0,
      "Ny" : 1,
      "n_parallel" : 1
    },
    {
      "alpha" : -1,
      "bottom" : "relu_FeatureExtractor\/MobilenetV2\/expanded_conv_6\/expand\/Relu6:0",
      "weights" : {

      },
      "mode" : 6,
      "top" : "relu_FeatureExtractor\/MobilenetV2\/expanded_conv_6\/expand\/Relu6:0_neg",
      "type" : "activation",
      "name" : "relu_FeatureExtractor\/MobilenetV2\/expanded_conv_6\/expand\/Relu6:0_neg",
      "beta" : 0
    },
    {
      "alpha" : -6,
      "bottom" : "relu_FeatureExtractor\/MobilenetV2\/expanded_conv_6\/expand\/Relu6:0_neg",
      "operation" : 25,
      "weights" : {

      },
      "fused_relu" : 0,
      "top" : "relu_FeatureExtractor\/MobilenetV2\/expanded_conv_6\/expand\/Relu6:0_clip",
      "type" : "elementwise",
      "name" : "relu_FeatureExtractor\/MobilenetV2\/expanded_conv_6\/expand\/Relu6:0_clip",
      "beta" : 0
    },
    {
      "alpha" : -1,
      "bottom" : "relu_FeatureExtractor\/MobilenetV2\/expanded_conv_6\/expand\/Relu6:0_clip",
      "weights" : {

      },
      "mode" : 6,
      "top" : "FeatureExtractor\/MobilenetV2\/expanded_conv_6\/expand\/Relu6:0",
      "type" : "activation",
      "name" : "FeatureExtractor\/MobilenetV2\/expanded_conv_6\/expand\/Relu6:0",
      "beta" : 0
    },
    {
      "pad_r" : 0,
      "fused_relu" : 1,
      "fused_tanh" : 0,
      "pad_fill_mode" : 0,
      "pad_b" : 0,
      "pad_l" : 0,
      "top" : "relu_FeatureExtractor\/MobilenetV2\/expanded_conv_6\/depthwise\/Relu6:0",
      "blob_weights" : 79,
      "K" : 192,
      "blob_biases" : 77,
      "stride_x" : 2,
      "name" : "FeatureExtractor\/MobilenetV2\/expanded_conv_6\/depthwise\/depthwise:0",
      "has_batch_norm" : 0,
      "type" : "convolution",
      "n_groups" : 192,
      "pad_t" : 0,
      "stride_y" : 2,
      "has_biases" : 1,
      "C" : 192,
      "bottom" : "FeatureExtractor\/MobilenetV2\/expanded_conv_6\/expand\/Relu6:0",
      "weights" : {

      },
      "Nx" : 3,
      "pad_mode" : 1,
      "pad_value" : 0,
      "Ny" : 3,
      "n_parallel" : 1
    },
    {
      "alpha" : -1,
      "bottom" : "relu_FeatureExtractor\/MobilenetV2\/expanded_conv_6\/depthwise\/Relu6:0",
      "weights" : {

      },
      "mode" : 6,
      "top" : "relu_FeatureExtractor\/MobilenetV2\/expanded_conv_6\/depthwise\/Relu6:0_neg",
      "type" : "activation",
      "name" : "relu_FeatureExtractor\/MobilenetV2\/expanded_conv_6\/depthwise\/Relu6:0_neg",
      "beta" : 0
    },
    {
      "alpha" : -6,
      "bottom" : "relu_FeatureExtractor\/MobilenetV2\/expanded_conv_6\/depthwise\/Relu6:0_neg",
      "operation" : 25,
      "weights" : {

      },
      "fused_relu" : 0,
      "top" : "relu_FeatureExtractor\/MobilenetV2\/expanded_conv_6\/depthwise\/Relu6:0_clip",
      "type" : "elementwise",
      "name" : "relu_FeatureExtractor\/MobilenetV2\/expanded_conv_6\/depthwise\/Relu6:0_clip",
      "beta" : 0
    },
    {
      "alpha" : -1,
      "bottom" : "relu_FeatureExtractor\/MobilenetV2\/expanded_conv_6\/depthwise\/Relu6:0_clip",
      "weights" : {

      },
      "mode" : 6,
      "top" : "FeatureExtractor\/MobilenetV2\/expanded_conv_6\/depthwise\/Relu6:0",
      "type" : "activation",
      "name" : "FeatureExtractor\/MobilenetV2\/expanded_conv_6\/depthwise\/Relu6:0",
      "beta" : 0
    },
    {
      "pad_r" : 0,
      "fused_relu" : 0,
      "fused_tanh" : 0,
      "pad_fill_mode" : 0,
      "pad_b" : 0,
      "pad_l" : 0,
      "top" : "FeatureExtractor\/MobilenetV2\/expanded_conv_6\/project\/BatchNorm\/batchnorm\/add_1:0",
      "blob_weights" : 83,
      "K" : 192,
      "blob_biases" : 81,
      "name" : "FeatureExtractor\/MobilenetV2\/expanded_conv_6\/project\/BatchNorm\/batchnorm\/mul_1:0",
      "has_batch_norm" : 0,
      "type" : "convolution",
      "n_groups" : 1,
      "pad_t" : 0,
      "has_biases" : 1,
      "C" : 64,
      "bottom" : "FeatureExtractor\/MobilenetV2\/expanded_conv_6\/depthwise\/Relu6:0",
      "weights" : {

      },
      "pad_mode" : 1,
      "Nx" : 1,
      "pad_value" : 0,
      "Ny" : 1,
      "n_parallel" : 1
    },
    {
      "pad_r" : 0,
      "fused_relu" : 1,
      "fused_tanh" : 0,
      "pad_fill_mode" : 0,
      "pad_b" : 0,
      "pad_l" : 0,
      "top" : "relu_FeatureExtractor\/MobilenetV2\/expanded_conv_7\/expand\/Relu6:0",
      "blob_weights" : 87,
      "K" : 64,
      "blob_biases" : 85,
      "name" : "FeatureExtractor\/MobilenetV2\/expanded_conv_7\/expand\/BatchNorm\/batchnorm\/mul_1:0",
      "has_batch_norm" : 0,
      "type" : "convolution",
      "n_groups" : 1,
      "pad_t" : 0,
      "has_biases" : 1,
      "C" : 384,
      "bottom" : "FeatureExtractor\/MobilenetV2\/expanded_conv_6\/project\/BatchNorm\/batchnorm\/add_1:0",
      "weights" : {

      },
      "pad_mode" : 1,
      "Nx" : 1,
      "pad_value" : 0,
      "Ny" : 1,
      "n_parallel" : 1
    },
    {
      "alpha" : -1,
      "bottom" : "relu_FeatureExtractor\/MobilenetV2\/expanded_conv_7\/expand\/Relu6:0",
      "weights" : {

      },
      "mode" : 6,
      "top" : "relu_FeatureExtractor\/MobilenetV2\/expanded_conv_7\/expand\/Relu6:0_neg",
      "type" : "activation",
      "name" : "relu_FeatureExtractor\/MobilenetV2\/expanded_conv_7\/expand\/Relu6:0_neg",
      "beta" : 0
    },
    {
      "alpha" : -6,
      "bottom" : "relu_FeatureExtractor\/MobilenetV2\/expanded_conv_7\/expand\/Relu6:0_neg",
      "operation" : 25,
      "weights" : {

      },
      "fused_relu" : 0,
      "top" : "relu_FeatureExtractor\/MobilenetV2\/expanded_conv_7\/expand\/Relu6:0_clip",
      "type" : "elementwise",
      "name" : "relu_FeatureExtractor\/MobilenetV2\/expanded_conv_7\/expand\/Relu6:0_clip",
      "beta" : 0
    },
    {
      "alpha" : -1,
      "bottom" : "relu_FeatureExtractor\/MobilenetV2\/expanded_conv_7\/expand\/Relu6:0_clip",
      "weights" : {

      },
      "mode" : 6,
      "top" : "FeatureExtractor\/MobilenetV2\/expanded_conv_7\/expand\/Relu6:0",
      "type" : "activation",
      "name" : "FeatureExtractor\/MobilenetV2\/expanded_conv_7\/expand\/Relu6:0",
      "beta" : 0
    },
    {
      "pad_r" : 0,
      "fused_relu" : 1,
      "fused_tanh" : 0,
      "pad_fill_mode" : 0,
      "pad_b" : 0,
      "pad_l" : 0,
      "top" : "relu_FeatureExtractor\/MobilenetV2\/expanded_conv_7\/depthwise\/Relu6:0",
      "blob_weights" : 91,
      "K" : 384,
      "blob_biases" : 89,
      "name" : "FeatureExtractor\/MobilenetV2\/expanded_conv_7\/depthwise\/depthwise:0",
      "has_batch_norm" : 0,
      "type" : "convolution",
      "n_groups" : 384,
      "pad_t" : 0,
      "has_biases" : 1,
      "C" : 384,
      "bottom" : "FeatureExtractor\/MobilenetV2\/expanded_conv_7\/expand\/Relu6:0",
      "weights" : {

      },
      "pad_mode" : 1,
      "Nx" : 3,
      "pad_value" : 0,
      "Ny" : 3,
      "n_parallel" : 1
    },
    {
      "alpha" : -1,
      "bottom" : "relu_FeatureExtractor\/MobilenetV2\/expanded_conv_7\/depthwise\/Relu6:0",
      "weights" : {

      },
      "mode" : 6,
      "top" : "relu_FeatureExtractor\/MobilenetV2\/expanded_conv_7\/depthwise\/Relu6:0_neg",
      "type" : "activation",
      "name" : "relu_FeatureExtractor\/MobilenetV2\/expanded_conv_7\/depthwise\/Relu6:0_neg",
      "beta" : 0
    },
    {
      "alpha" : -6,
      "bottom" : "relu_FeatureExtractor\/MobilenetV2\/expanded_conv_7\/depthwise\/Relu6:0_neg",
      "operation" : 25,
      "weights" : {

      },
      "fused_relu" : 0,
      "top" : "relu_FeatureExtractor\/MobilenetV2\/expanded_conv_7\/depthwise\/Relu6:0_clip",
      "type" : "elementwise",
      "name" : "relu_FeatureExtractor\/MobilenetV2\/expanded_conv_7\/depthwise\/Relu6:0_clip",
      "beta" : 0
    },
    {
      "alpha" : -1,
      "bottom" : "relu_FeatureExtractor\/MobilenetV2\/expanded_conv_7\/depthwise\/Relu6:0_clip",
      "weights" : {

      },
      "mode" : 6,
      "top" : "FeatureExtractor\/MobilenetV2\/expanded_conv_7\/depthwise\/Relu6:0",
      "type" : "activation",
      "name" : "FeatureExtractor\/MobilenetV2\/expanded_conv_7\/depthwise\/Relu6:0",
      "beta" : 0
    },
    {
      "pad_r" : 0,
      "fused_relu" : 0,
      "fused_tanh" : 0,
      "pad_fill_mode" : 0,
      "pad_b" : 0,
      "pad_l" : 0,
      "top" : "FeatureExtractor\/MobilenetV2\/expanded_conv_7\/project\/BatchNorm\/batchnorm\/add_1:0",
      "blob_weights" : 95,
      "K" : 384,
      "blob_biases" : 93,
      "name" : "FeatureExtractor\/MobilenetV2\/expanded_conv_7\/project\/BatchNorm\/batchnorm\/mul_1:0",
      "has_batch_norm" : 0,
      "type" : "convolution",
      "n_groups" : 1,
      "pad_t" : 0,
      "has_biases" : 1,
      "C" : 64,
      "bottom" : "FeatureExtractor\/MobilenetV2\/expanded_conv_7\/depthwise\/Relu6:0",
      "weights" : {

      },
      "pad_mode" : 1,
      "Nx" : 1,
      "pad_value" : 0,
      "Ny" : 1,
      "n_parallel" : 1
    },
    {
      "alpha" : 1,
      "bottom" : "FeatureExtractor\/MobilenetV2\/expanded_conv_7\/project\/BatchNorm\/batchnorm\/add_1:0,FeatureExtractor\/MobilenetV2\/expanded_conv_6\/project\/BatchNorm\/batchnorm\/add_1:0",
      "operation" : 0,
      "weights" : {

      },
      "fused_relu" : 0,
      "top" : "FeatureExtractor\/MobilenetV2\/expanded_conv_7\/add:0",
      "type" : "elementwise",
      "name" : "FeatureExtractor\/MobilenetV2\/expanded_conv_7\/add:0",
      "beta" : 0
    },
    {
      "pad_r" : 0,
      "fused_relu" : 1,
      "fused_tanh" : 0,
      "pad_fill_mode" : 0,
      "pad_b" : 0,
      "pad_l" : 0,
      "top" : "relu_FeatureExtractor\/MobilenetV2\/expanded_conv_8\/expand\/Relu6:0",
      "blob_weights" : 99,
      "K" : 64,
      "blob_biases" : 97,
      "name" : "FeatureExtractor\/MobilenetV2\/expanded_conv_8\/expand\/BatchNorm\/batchnorm\/mul_1:0",
      "has_batch_norm" : 0,
      "type" : "convolution",
      "n_groups" : 1,
      "pad_t" : 0,
      "has_biases" : 1,
      "C" : 384,
      "bottom" : "FeatureExtractor\/MobilenetV2\/expanded_conv_7\/add:0",
      "weights" : {

      },
      "pad_mode" : 1,
      "Nx" : 1,
      "pad_value" : 0,
      "Ny" : 1,
      "n_parallel" : 1
    },
    {
      "alpha" : -1,
      "bottom" : "relu_FeatureExtractor\/MobilenetV2\/expanded_conv_8\/expand\/Relu6:0",
      "weights" : {

      },
      "mode" : 6,
      "top" : "relu_FeatureExtractor\/MobilenetV2\/expanded_conv_8\/expand\/Relu6:0_neg",
      "type" : "activation",
      "name" : "relu_FeatureExtractor\/MobilenetV2\/expanded_conv_8\/expand\/Relu6:0_neg",
      "beta" : 0
    },
    {
      "alpha" : -6,
      "bottom" : "relu_FeatureExtractor\/MobilenetV2\/expanded_conv_8\/expand\/Relu6:0_neg",
      "operation" : 25,
      "weights" : {

      },
      "fused_relu" : 0,
      "top" : "relu_FeatureExtractor\/MobilenetV2\/expanded_conv_8\/expand\/Relu6:0_clip",
      "type" : "elementwise",
      "name" : "relu_FeatureExtractor\/MobilenetV2\/expanded_conv_8\/expand\/Relu6:0_clip",
      "beta" : 0
    },
    {
      "alpha" : -1,
      "bottom" : "relu_FeatureExtractor\/MobilenetV2\/expanded_conv_8\/expand\/Relu6:0_clip",
      "weights" : {

      },
      "mode" : 6,
      "top" : "FeatureExtractor\/MobilenetV2\/expanded_conv_8\/expand\/Relu6:0",
      "type" : "activation",
      "name" : "FeatureExtractor\/MobilenetV2\/expanded_conv_8\/expand\/Relu6:0",
      "beta" : 0
    },
    {
      "pad_r" : 0,
      "fused_relu" : 1,
      "fused_tanh" : 0,
      "pad_fill_mode" : 0,
      "pad_b" : 0,
      "pad_l" : 0,
      "top" : "relu_FeatureExtractor\/MobilenetV2\/expanded_conv_8\/depthwise\/Relu6:0",
      "blob_weights" : 103,
      "K" : 384,
      "blob_biases" : 101,
      "name" : "FeatureExtractor\/MobilenetV2\/expanded_conv_8\/depthwise\/depthwise:0",
      "has_batch_norm" : 0,
      "type" : "convolution",
      "n_groups" : 384,
      "pad_t" : 0,
      "has_biases" : 1,
      "C" : 384,
      "bottom" : "FeatureExtractor\/MobilenetV2\/expanded_conv_8\/expand\/Relu6:0",
      "weights" : {

      },
      "pad_mode" : 1,
      "Nx" : 3,
      "pad_value" : 0,
      "Ny" : 3,
      "n_parallel" : 1
    },
    {
      "alpha" : -1,
      "bottom" : "relu_FeatureExtractor\/MobilenetV2\/expanded_conv_8\/depthwise\/Relu6:0",
      "weights" : {

      },
      "mode" : 6,
      "top" : "relu_FeatureExtractor\/MobilenetV2\/expanded_conv_8\/depthwise\/Relu6:0_neg",
      "type" : "activation",
      "name" : "relu_FeatureExtractor\/MobilenetV2\/expanded_conv_8\/depthwise\/Relu6:0_neg",
      "beta" : 0
    },
    {
      "alpha" : -6,
      "bottom" : "relu_FeatureExtractor\/MobilenetV2\/expanded_conv_8\/depthwise\/Relu6:0_neg",
      "operation" : 25,
      "weights" : {

      },
      "fused_relu" : 0,
      "top" : "relu_FeatureExtractor\/MobilenetV2\/expanded_conv_8\/depthwise\/Relu6:0_clip",
      "type" : "elementwise",
      "name" : "relu_FeatureExtractor\/MobilenetV2\/expanded_conv_8\/depthwise\/Relu6:0_clip",
      "beta" : 0
    },
    {
      "alpha" : -1,
      "bottom" : "relu_FeatureExtractor\/MobilenetV2\/expanded_conv_8\/depthwise\/Relu6:0_clip",
      "weights" : {

      },
      "mode" : 6,
      "top" : "FeatureExtractor\/MobilenetV2\/expanded_conv_8\/depthwise\/Relu6:0",
      "type" : "activation",
      "name" : "FeatureExtractor\/MobilenetV2\/expanded_conv_8\/depthwise\/Relu6:0",
      "beta" : 0
    },
    {
      "pad_r" : 0,
      "fused_relu" : 0,
      "fused_tanh" : 0,
      "pad_fill_mode" : 0,
      "pad_b" : 0,
      "pad_l" : 0,
      "top" : "FeatureExtractor\/MobilenetV2\/expanded_conv_8\/project\/BatchNorm\/batchnorm\/add_1:0",
      "blob_weights" : 107,
      "K" : 384,
      "blob_biases" : 105,
      "name" : "FeatureExtractor\/MobilenetV2\/expanded_conv_8\/project\/BatchNorm\/batchnorm\/mul_1:0",
      "has_batch_norm" : 0,
      "type" : "convolution",
      "n_groups" : 1,
      "pad_t" : 0,
      "has_biases" : 1,
      "C" : 64,
      "bottom" : "FeatureExtractor\/MobilenetV2\/expanded_conv_8\/depthwise\/Relu6:0",
      "weights" : {

      },
      "pad_mode" : 1,
      "Nx" : 1,
      "pad_value" : 0,
      "Ny" : 1,
      "n_parallel" : 1
    },
    {
      "alpha" : 1,
      "bottom" : "FeatureExtractor\/MobilenetV2\/expanded_conv_8\/project\/BatchNorm\/batchnorm\/add_1:0,FeatureExtractor\/MobilenetV2\/expanded_conv_7\/add:0",
      "operation" : 0,
      "weights" : {

      },
      "fused_relu" : 0,
      "top" : "FeatureExtractor\/MobilenetV2\/expanded_conv_8\/add:0",
      "type" : "elementwise",
      "name" : "FeatureExtractor\/MobilenetV2\/expanded_conv_8\/add:0",
      "beta" : 0
    },
    {
      "pad_r" : 0,
      "fused_relu" : 1,
      "fused_tanh" : 0,
      "pad_fill_mode" : 0,
      "pad_b" : 0,
      "pad_l" : 0,
      "top" : "relu_FeatureExtractor\/MobilenetV2\/expanded_conv_9\/expand\/Relu6:0",
      "blob_weights" : 111,
      "K" : 64,
      "blob_biases" : 109,
      "name" : "FeatureExtractor\/MobilenetV2\/expanded_conv_9\/expand\/BatchNorm\/batchnorm\/mul_1:0",
      "has_batch_norm" : 0,
      "type" : "convolution",
      "n_groups" : 1,
      "pad_t" : 0,
      "has_biases" : 1,
      "C" : 384,
      "bottom" : "FeatureExtractor\/MobilenetV2\/expanded_conv_8\/add:0",
      "weights" : {

      },
      "pad_mode" : 1,
      "Nx" : 1,
      "pad_value" : 0,
      "Ny" : 1,
      "n_parallel" : 1
    },
    {
      "alpha" : -1,
      "bottom" : "relu_FeatureExtractor\/MobilenetV2\/expanded_conv_9\/expand\/Relu6:0",
      "weights" : {

      },
      "mode" : 6,
      "top" : "relu_FeatureExtractor\/MobilenetV2\/expanded_conv_9\/expand\/Relu6:0_neg",
      "type" : "activation",
      "name" : "relu_FeatureExtractor\/MobilenetV2\/expanded_conv_9\/expand\/Relu6:0_neg",
      "beta" : 0
    },
    {
      "alpha" : -6,
      "bottom" : "relu_FeatureExtractor\/MobilenetV2\/expanded_conv_9\/expand\/Relu6:0_neg",
      "operation" : 25,
      "weights" : {

      },
      "fused_relu" : 0,
      "top" : "relu_FeatureExtractor\/MobilenetV2\/expanded_conv_9\/expand\/Relu6:0_clip",
      "type" : "elementwise",
      "name" : "relu_FeatureExtractor\/MobilenetV2\/expanded_conv_9\/expand\/Relu6:0_clip",
      "beta" : 0
    },
    {
      "alpha" : -1,
      "bottom" : "relu_FeatureExtractor\/MobilenetV2\/expanded_conv_9\/expand\/Relu6:0_clip",
      "weights" : {

      },
      "mode" : 6,
      "top" : "FeatureExtractor\/MobilenetV2\/expanded_conv_9\/expand\/Relu6:0",
      "type" : "activation",
      "name" : "FeatureExtractor\/MobilenetV2\/expanded_conv_9\/expand\/Relu6:0",
      "beta" : 0
    },
    {
      "pad_r" : 0,
      "fused_relu" : 1,
      "fused_tanh" : 0,
      "pad_fill_mode" : 0,
      "pad_b" : 0,
      "pad_l" : 0,
      "top" : "relu_FeatureExtractor\/MobilenetV2\/expanded_conv_9\/depthwise\/Relu6:0",
      "blob_weights" : 115,
      "K" : 384,
      "blob_biases" : 113,
      "name" : "FeatureExtractor\/MobilenetV2\/expanded_conv_9\/depthwise\/depthwise:0",
      "has_batch_norm" : 0,
      "type" : "convolution",
      "n_groups" : 384,
      "pad_t" : 0,
      "has_biases" : 1,
      "C" : 384,
      "bottom" : "FeatureExtractor\/MobilenetV2\/expanded_conv_9\/expand\/Relu6:0",
      "weights" : {

      },
      "pad_mode" : 1,
      "Nx" : 3,
      "pad_value" : 0,
      "Ny" : 3,
      "n_parallel" : 1
    },
    {
      "alpha" : -1,
      "bottom" : "relu_FeatureExtractor\/MobilenetV2\/expanded_conv_9\/depthwise\/Relu6:0",
      "weights" : {

      },
      "mode" : 6,
      "top" : "relu_FeatureExtractor\/MobilenetV2\/expanded_conv_9\/depthwise\/Relu6:0_neg",
      "type" : "activation",
      "name" : "relu_FeatureExtractor\/MobilenetV2\/expanded_conv_9\/depthwise\/Relu6:0_neg",
      "beta" : 0
    },
    {
      "alpha" : -6,
      "bottom" : "relu_FeatureExtractor\/MobilenetV2\/expanded_conv_9\/depthwise\/Relu6:0_neg",
      "operation" : 25,
      "weights" : {

      },
      "fused_relu" : 0,
      "top" : "relu_FeatureExtractor\/MobilenetV2\/expanded_conv_9\/depthwise\/Relu6:0_clip",
      "type" : "elementwise",
      "name" : "relu_FeatureExtractor\/MobilenetV2\/expanded_conv_9\/depthwise\/Relu6:0_clip",
      "beta" : 0
    },
    {
      "alpha" : -1,
      "bottom" : "relu_FeatureExtractor\/MobilenetV2\/expanded_conv_9\/depthwise\/Relu6:0_clip",
      "weights" : {

      },
      "mode" : 6,
      "top" : "FeatureExtractor\/MobilenetV2\/expanded_conv_9\/depthwise\/Relu6:0",
      "type" : "activation",
      "name" : "FeatureExtractor\/MobilenetV2\/expanded_conv_9\/depthwise\/Relu6:0",
      "beta" : 0
    },
    {
      "pad_r" : 0,
      "fused_relu" : 0,
      "fused_tanh" : 0,
      "pad_fill_mode" : 0,
      "pad_b" : 0,
      "pad_l" : 0,
      "top" : "FeatureExtractor\/MobilenetV2\/expanded_conv_9\/project\/BatchNorm\/batchnorm\/add_1:0",
      "blob_weights" : 119,
      "K" : 384,
      "blob_biases" : 117,
      "name" : "FeatureExtractor\/MobilenetV2\/expanded_conv_9\/project\/BatchNorm\/batchnorm\/mul_1:0",
      "has_batch_norm" : 0,
      "type" : "convolution",
      "n_groups" : 1,
      "pad_t" : 0,
      "has_biases" : 1,
      "C" : 64,
      "bottom" : "FeatureExtractor\/MobilenetV2\/expanded_conv_9\/depthwise\/Relu6:0",
      "weights" : {

      },
      "pad_mode" : 1,
      "Nx" : 1,
      "pad_value" : 0,
      "Ny" : 1,
      "n_parallel" : 1
    },
    {
      "alpha" : 1,
      "bottom" : "FeatureExtractor\/MobilenetV2\/expanded_conv_9\/project\/BatchNorm\/batchnorm\/add_1:0,FeatureExtractor\/MobilenetV2\/expanded_conv_8\/add:0",
      "operation" : 0,
      "weights" : {

      },
      "fused_relu" : 0,
      "top" : "FeatureExtractor\/MobilenetV2\/expanded_conv_9\/add:0",
      "type" : "elementwise",
      "name" : "FeatureExtractor\/MobilenetV2\/expanded_conv_9\/add:0",
      "beta" : 0
    },
    {
      "pad_r" : 0,
      "fused_relu" : 1,
      "fused_tanh" : 0,
      "pad_fill_mode" : 0,
      "pad_b" : 0,
      "pad_l" : 0,
      "top" : "relu_FeatureExtractor\/MobilenetV2\/expanded_conv_10\/expand\/Relu6:0",
      "blob_weights" : 123,
      "K" : 64,
      "blob_biases" : 121,
      "name" : "FeatureExtractor\/MobilenetV2\/expanded_conv_10\/expand\/BatchNorm\/batchnorm\/mul_1:0",
      "has_batch_norm" : 0,
      "type" : "convolution",
      "n_groups" : 1,
      "pad_t" : 0,
      "has_biases" : 1,
      "C" : 384,
      "bottom" : "FeatureExtractor\/MobilenetV2\/expanded_conv_9\/add:0",
      "weights" : {

      },
      "pad_mode" : 1,
      "Nx" : 1,
      "pad_value" : 0,
      "Ny" : 1,
      "n_parallel" : 1
    },
    {
      "alpha" : -1,
      "bottom" : "relu_FeatureExtractor\/MobilenetV2\/expanded_conv_10\/expand\/Relu6:0",
      "weights" : {

      },
      "mode" : 6,
      "top" : "relu_FeatureExtractor\/MobilenetV2\/expanded_conv_10\/expand\/Relu6:0_neg",
      "type" : "activation",
      "name" : "relu_FeatureExtractor\/MobilenetV2\/expanded_conv_10\/expand\/Relu6:0_neg",
      "beta" : 0
    },
    {
      "alpha" : -6,
      "bottom" : "relu_FeatureExtractor\/MobilenetV2\/expanded_conv_10\/expand\/Relu6:0_neg",
      "operation" : 25,
      "weights" : {

      },
      "fused_relu" : 0,
      "top" : "relu_FeatureExtractor\/MobilenetV2\/expanded_conv_10\/expand\/Relu6:0_clip",
      "type" : "elementwise",
      "name" : "relu_FeatureExtractor\/MobilenetV2\/expanded_conv_10\/expand\/Relu6:0_clip",
      "beta" : 0
    },
    {
      "alpha" : -1,
      "bottom" : "relu_FeatureExtractor\/MobilenetV2\/expanded_conv_10\/expand\/Relu6:0_clip",
      "weights" : {

      },
      "mode" : 6,
      "top" : "FeatureExtractor\/MobilenetV2\/expanded_conv_10\/expand\/Relu6:0",
      "type" : "activation",
      "name" : "FeatureExtractor\/MobilenetV2\/expanded_conv_10\/expand\/Relu6:0",
      "beta" : 0
    },
    {
      "pad_r" : 0,
      "fused_relu" : 1,
      "fused_tanh" : 0,
      "pad_fill_mode" : 0,
      "pad_b" : 0,
      "pad_l" : 0,
      "top" : "relu_FeatureExtractor\/MobilenetV2\/expanded_conv_10\/depthwise\/Relu6:0",
      "blob_weights" : 127,
      "K" : 384,
      "blob_biases" : 125,
      "name" : "FeatureExtractor\/MobilenetV2\/expanded_conv_10\/depthwise\/depthwise:0",
      "has_batch_norm" : 0,
      "type" : "convolution",
      "n_groups" : 384,
      "pad_t" : 0,
      "has_biases" : 1,
      "C" : 384,
      "bottom" : "FeatureExtractor\/MobilenetV2\/expanded_conv_10\/expand\/Relu6:0",
      "weights" : {

      },
      "pad_mode" : 1,
      "Nx" : 3,
      "pad_value" : 0,
      "Ny" : 3,
      "n_parallel" : 1
    },
    {
      "alpha" : -1,
      "bottom" : "relu_FeatureExtractor\/MobilenetV2\/expanded_conv_10\/depthwise\/Relu6:0",
      "weights" : {

      },
      "mode" : 6,
      "top" : "relu_FeatureExtractor\/MobilenetV2\/expanded_conv_10\/depthwise\/Relu6:0_neg",
      "type" : "activation",
      "name" : "relu_FeatureExtractor\/MobilenetV2\/expanded_conv_10\/depthwise\/Relu6:0_neg",
      "beta" : 0
    },
    {
      "alpha" : -6,
      "bottom" : "relu_FeatureExtractor\/MobilenetV2\/expanded_conv_10\/depthwise\/Relu6:0_neg",
      "operation" : 25,
      "weights" : {

      },
      "fused_relu" : 0,
      "top" : "relu_FeatureExtractor\/MobilenetV2\/expanded_conv_10\/depthwise\/Relu6:0_clip",
      "type" : "elementwise",
      "name" : "relu_FeatureExtractor\/MobilenetV2\/expanded_conv_10\/depthwise\/Relu6:0_clip",
      "beta" : 0
    },
    {
      "alpha" : -1,
      "bottom" : "relu_FeatureExtractor\/MobilenetV2\/expanded_conv_10\/depthwise\/Relu6:0_clip",
      "weights" : {

      },
      "mode" : 6,
      "top" : "FeatureExtractor\/MobilenetV2\/expanded_conv_10\/depthwise\/Relu6:0",
      "type" : "activation",
      "name" : "FeatureExtractor\/MobilenetV2\/expanded_conv_10\/depthwise\/Relu6:0",
      "beta" : 0
    },
    {
      "pad_r" : 0,
      "fused_relu" : 0,
      "fused_tanh" : 0,
      "pad_fill_mode" : 0,
      "pad_b" : 0,
      "pad_l" : 0,
      "top" : "FeatureExtractor\/MobilenetV2\/expanded_conv_10\/project\/BatchNorm\/batchnorm\/add_1:0",
      "blob_weights" : 131,
      "K" : 384,
      "blob_biases" : 129,
      "name" : "FeatureExtractor\/MobilenetV2\/expanded_conv_10\/project\/BatchNorm\/batchnorm\/mul_1:0",
      "has_batch_norm" : 0,
      "type" : "convolution",
      "n_groups" : 1,
      "pad_t" : 0,
      "has_biases" : 1,
      "C" : 96,
      "bottom" : "FeatureExtractor\/MobilenetV2\/expanded_conv_10\/depthwise\/Relu6:0",
      "weights" : {

      },
      "pad_mode" : 1,
      "Nx" : 1,
      "pad_value" : 0,
      "Ny" : 1,
      "n_parallel" : 1
    },
    {
      "pad_r" : 0,
      "fused_relu" : 1,
      "fused_tanh" : 0,
      "pad_fill_mode" : 0,
      "pad_b" : 0,
      "pad_l" : 0,
      "top" : "relu_FeatureExtractor\/MobilenetV2\/expanded_conv_11\/expand\/Relu6:0",
      "blob_weights" : 135,
      "K" : 96,
      "blob_biases" : 133,
      "name" : "FeatureExtractor\/MobilenetV2\/expanded_conv_11\/expand\/BatchNorm\/batchnorm\/mul_1:0",
      "has_batch_norm" : 0,
      "type" : "convolution",
      "n_groups" : 1,
      "pad_t" : 0,
      "has_biases" : 1,
      "C" : 576,
      "bottom" : "FeatureExtractor\/MobilenetV2\/expanded_conv_10\/project\/BatchNorm\/batchnorm\/add_1:0",
      "weights" : {

      },
      "pad_mode" : 1,
      "Nx" : 1,
      "pad_value" : 0,
      "Ny" : 1,
      "n_parallel" : 1
    },
    {
      "alpha" : -1,
      "bottom" : "relu_FeatureExtractor\/MobilenetV2\/expanded_conv_11\/expand\/Relu6:0",
      "weights" : {

      },
      "mode" : 6,
      "top" : "relu_FeatureExtractor\/MobilenetV2\/expanded_conv_11\/expand\/Relu6:0_neg",
      "type" : "activation",
      "name" : "relu_FeatureExtractor\/MobilenetV2\/expanded_conv_11\/expand\/Relu6:0_neg",
      "beta" : 0
    },
    {
      "alpha" : -6,
      "bottom" : "relu_FeatureExtractor\/MobilenetV2\/expanded_conv_11\/expand\/Relu6:0_neg",
      "operation" : 25,
      "weights" : {

      },
      "fused_relu" : 0,
      "top" : "relu_FeatureExtractor\/MobilenetV2\/expanded_conv_11\/expand\/Relu6:0_clip",
      "type" : "elementwise",
      "name" : "relu_FeatureExtractor\/MobilenetV2\/expanded_conv_11\/expand\/Relu6:0_clip",
      "beta" : 0
    },
    {
      "alpha" : -1,
      "bottom" : "relu_FeatureExtractor\/MobilenetV2\/expanded_conv_11\/expand\/Relu6:0_clip",
      "weights" : {

      },
      "mode" : 6,
      "top" : "FeatureExtractor\/MobilenetV2\/expanded_conv_11\/expand\/Relu6:0",
      "type" : "activation",
      "name" : "FeatureExtractor\/MobilenetV2\/expanded_conv_11\/expand\/Relu6:0",
      "beta" : 0
    },
    {
      "pad_r" : 0,
      "fused_relu" : 1,
      "fused_tanh" : 0,
      "pad_fill_mode" : 0,
      "pad_b" : 0,
      "pad_l" : 0,
      "top" : "relu_FeatureExtractor\/MobilenetV2\/expanded_conv_11\/depthwise\/Relu6:0",
      "blob_weights" : 139,
      "K" : 576,
      "blob_biases" : 137,
      "name" : "FeatureExtractor\/MobilenetV2\/expanded_conv_11\/depthwise\/depthwise:0",
      "has_batch_norm" : 0,
      "type" : "convolution",
      "n_groups" : 576,
      "pad_t" : 0,
      "has_biases" : 1,
      "C" : 576,
      "bottom" : "FeatureExtractor\/MobilenetV2\/expanded_conv_11\/expand\/Relu6:0",
      "weights" : {

      },
      "pad_mode" : 1,
      "Nx" : 3,
      "pad_value" : 0,
      "Ny" : 3,
      "n_parallel" : 1
    },
    {
      "alpha" : -1,
      "bottom" : "relu_FeatureExtractor\/MobilenetV2\/expanded_conv_11\/depthwise\/Relu6:0",
      "weights" : {

      },
      "mode" : 6,
      "top" : "relu_FeatureExtractor\/MobilenetV2\/expanded_conv_11\/depthwise\/Relu6:0_neg",
      "type" : "activation",
      "name" : "relu_FeatureExtractor\/MobilenetV2\/expanded_conv_11\/depthwise\/Relu6:0_neg",
      "beta" : 0
    },
    {
      "alpha" : -6,
      "bottom" : "relu_FeatureExtractor\/MobilenetV2\/expanded_conv_11\/depthwise\/Relu6:0_neg",
      "operation" : 25,
      "weights" : {

      },
      "fused_relu" : 0,
      "top" : "relu_FeatureExtractor\/MobilenetV2\/expanded_conv_11\/depthwise\/Relu6:0_clip",
      "type" : "elementwise",
      "name" : "relu_FeatureExtractor\/MobilenetV2\/expanded_conv_11\/depthwise\/Relu6:0_clip",
      "beta" : 0
    },
    {
      "alpha" : -1,
      "bottom" : "relu_FeatureExtractor\/MobilenetV2\/expanded_conv_11\/depthwise\/Relu6:0_clip",
      "weights" : {

      },
      "mode" : 6,
      "top" : "FeatureExtractor\/MobilenetV2\/expanded_conv_11\/depthwise\/Relu6:0",
      "type" : "activation",
      "name" : "FeatureExtractor\/MobilenetV2\/expanded_conv_11\/depthwise\/Relu6:0",
      "beta" : 0
    },
    {
      "pad_r" : 0,
      "fused_relu" : 0,
      "fused_tanh" : 0,
      "pad_fill_mode" : 0,
      "pad_b" : 0,
      "pad_l" : 0,
      "top" : "FeatureExtractor\/MobilenetV2\/expanded_conv_11\/project\/BatchNorm\/batchnorm\/add_1:0",
      "blob_weights" : 143,
      "K" : 576,
      "blob_biases" : 141,
      "name" : "FeatureExtractor\/MobilenetV2\/expanded_conv_11\/project\/BatchNorm\/batchnorm\/mul_1:0",
      "has_batch_norm" : 0,
      "type" : "convolution",
      "n_groups" : 1,
      "pad_t" : 0,
      "has_biases" : 1,
      "C" : 96,
      "bottom" : "FeatureExtractor\/MobilenetV2\/expanded_conv_11\/depthwise\/Relu6:0",
      "weights" : {

      },
      "pad_mode" : 1,
      "Nx" : 1,
      "pad_value" : 0,
      "Ny" : 1,
      "n_parallel" : 1
    },
    {
      "alpha" : 1,
      "bottom" : "FeatureExtractor\/MobilenetV2\/expanded_conv_11\/project\/BatchNorm\/batchnorm\/add_1:0,FeatureExtractor\/MobilenetV2\/expanded_conv_10\/project\/BatchNorm\/batchnorm\/add_1:0",
      "operation" : 0,
      "weights" : {

      },
      "fused_relu" : 0,
      "top" : "FeatureExtractor\/MobilenetV2\/expanded_conv_11\/add:0",
      "type" : "elementwise",
      "name" : "FeatureExtractor\/MobilenetV2\/expanded_conv_11\/add:0",
      "beta" : 0
    },
    {
      "pad_r" : 0,
      "fused_relu" : 1,
      "fused_tanh" : 0,
      "pad_fill_mode" : 0,
      "pad_b" : 0,
      "pad_l" : 0,
      "top" : "relu_FeatureExtractor\/MobilenetV2\/expanded_conv_12\/expand\/Relu6:0",
      "blob_weights" : 147,
      "K" : 96,
      "blob_biases" : 145,
      "name" : "FeatureExtractor\/MobilenetV2\/expanded_conv_12\/expand\/BatchNorm\/batchnorm\/mul_1:0",
      "has_batch_norm" : 0,
      "type" : "convolution",
      "n_groups" : 1,
      "pad_t" : 0,
      "has_biases" : 1,
      "C" : 576,
      "bottom" : "FeatureExtractor\/MobilenetV2\/expanded_conv_11\/add:0",
      "weights" : {

      },
      "pad_mode" : 1,
      "Nx" : 1,
      "pad_value" : 0,
      "Ny" : 1,
      "n_parallel" : 1
    },
    {
      "alpha" : -1,
      "bottom" : "relu_FeatureExtractor\/MobilenetV2\/expanded_conv_12\/expand\/Relu6:0",
      "weights" : {

      },
      "mode" : 6,
      "top" : "relu_FeatureExtractor\/MobilenetV2\/expanded_conv_12\/expand\/Relu6:0_neg",
      "type" : "activation",
      "name" : "relu_FeatureExtractor\/MobilenetV2\/expanded_conv_12\/expand\/Relu6:0_neg",
      "beta" : 0
    },
    {
      "alpha" : -6,
      "bottom" : "relu_FeatureExtractor\/MobilenetV2\/expanded_conv_12\/expand\/Relu6:0_neg",
      "operation" : 25,
      "weights" : {

      },
      "fused_relu" : 0,
      "top" : "relu_FeatureExtractor\/MobilenetV2\/expanded_conv_12\/expand\/Relu6:0_clip",
      "type" : "elementwise",
      "name" : "relu_FeatureExtractor\/MobilenetV2\/expanded_conv_12\/expand\/Relu6:0_clip",
      "beta" : 0
    },
    {
      "alpha" : -1,
      "bottom" : "relu_FeatureExtractor\/MobilenetV2\/expanded_conv_12\/expand\/Relu6:0_clip",
      "weights" : {

      },
      "mode" : 6,
      "top" : "FeatureExtractor\/MobilenetV2\/expanded_conv_12\/expand\/Relu6:0",
      "type" : "activation",
      "name" : "FeatureExtractor\/MobilenetV2\/expanded_conv_12\/expand\/Relu6:0",
      "beta" : 0
    },
    {
      "pad_r" : 0,
      "fused_relu" : 1,
      "fused_tanh" : 0,
      "pad_fill_mode" : 0,
      "pad_b" : 0,
      "pad_l" : 0,
      "top" : "relu_FeatureExtractor\/MobilenetV2\/expanded_conv_12\/depthwise\/Relu6:0",
      "blob_weights" : 151,
      "K" : 576,
      "blob_biases" : 149,
      "name" : "FeatureExtractor\/MobilenetV2\/expanded_conv_12\/depthwise\/depthwise:0",
      "has_batch_norm" : 0,
      "type" : "convolution",
      "n_groups" : 576,
      "pad_t" : 0,
      "has_biases" : 1,
      "C" : 576,
      "bottom" : "FeatureExtractor\/MobilenetV2\/expanded_conv_12\/expand\/Relu6:0",
      "weights" : {

      },
      "pad_mode" : 1,
      "Nx" : 3,
      "pad_value" : 0,
      "Ny" : 3,
      "n_parallel" : 1
    },
    {
      "alpha" : -1,
      "bottom" : "relu_FeatureExtractor\/MobilenetV2\/expanded_conv_12\/depthwise\/Relu6:0",
      "weights" : {

      },
      "mode" : 6,
      "top" : "relu_FeatureExtractor\/MobilenetV2\/expanded_conv_12\/depthwise\/Relu6:0_neg",
      "type" : "activation",
      "name" : "relu_FeatureExtractor\/MobilenetV2\/expanded_conv_12\/depthwise\/Relu6:0_neg",
      "beta" : 0
    },
    {
      "alpha" : -6,
      "bottom" : "relu_FeatureExtractor\/MobilenetV2\/expanded_conv_12\/depthwise\/Relu6:0_neg",
      "operation" : 25,
      "weights" : {

      },
      "fused_relu" : 0,
      "top" : "relu_FeatureExtractor\/MobilenetV2\/expanded_conv_12\/depthwise\/Relu6:0_clip",
      "type" : "elementwise",
      "name" : "relu_FeatureExtractor\/MobilenetV2\/expanded_conv_12\/depthwise\/Relu6:0_clip",
      "beta" : 0
    },
    {
      "alpha" : -1,
      "bottom" : "relu_FeatureExtractor\/MobilenetV2\/expanded_conv_12\/depthwise\/Relu6:0_clip",
      "weights" : {

      },
      "mode" : 6,
      "top" : "FeatureExtractor\/MobilenetV2\/expanded_conv_12\/depthwise\/Relu6:0",
      "type" : "activation",
      "name" : "FeatureExtractor\/MobilenetV2\/expanded_conv_12\/depthwise\/Relu6:0",
      "beta" : 0
    },
    {
      "pad_r" : 0,
      "fused_relu" : 0,
      "fused_tanh" : 0,
      "pad_fill_mode" : 0,
      "pad_b" : 0,
      "pad_l" : 0,
      "top" : "FeatureExtractor\/MobilenetV2\/expanded_conv_12\/project\/BatchNorm\/batchnorm\/add_1:0",
      "blob_weights" : 155,
      "K" : 576,
      "blob_biases" : 153,
      "name" : "FeatureExtractor\/MobilenetV2\/expanded_conv_12\/project\/BatchNorm\/batchnorm\/mul_1:0",
      "has_batch_norm" : 0,
      "type" : "convolution",
      "n_groups" : 1,
      "pad_t" : 0,
      "has_biases" : 1,
      "C" : 96,
      "bottom" : "FeatureExtractor\/MobilenetV2\/expanded_conv_12\/depthwise\/Relu6:0",
      "weights" : {

      },
      "pad_mode" : 1,
      "Nx" : 1,
      "pad_value" : 0,
      "Ny" : 1,
      "n_parallel" : 1
    },
    {
      "alpha" : 1,
      "bottom" : "FeatureExtractor\/MobilenetV2\/expanded_conv_12\/project\/BatchNorm\/batchnorm\/add_1:0,FeatureExtractor\/MobilenetV2\/expanded_conv_11\/add:0",
      "operation" : 0,
      "weights" : {

      },
      "fused_relu" : 0,
      "top" : "FeatureExtractor\/MobilenetV2\/expanded_conv_12\/add:0",
      "type" : "elementwise",
      "name" : "FeatureExtractor\/MobilenetV2\/expanded_conv_12\/add:0",
      "beta" : 0
    },
    {
      "pad_r" : 0,
      "fused_relu" : 1,
      "fused_tanh" : 0,
      "pad_fill_mode" : 0,
      "pad_b" : 0,
      "pad_l" : 0,
      "top" : "relu_FeatureExtractor\/MobilenetV2\/expanded_conv_13\/expand\/Relu6:0",
      "blob_weights" : 159,
      "K" : 96,
      "blob_biases" : 157,
      "name" : "FeatureExtractor\/MobilenetV2\/expanded_conv_13\/expand\/BatchNorm\/batchnorm\/mul_1:0",
      "has_batch_norm" : 0,
      "type" : "convolution",
      "n_groups" : 1,
      "pad_t" : 0,
      "has_biases" : 1,
      "C" : 576,
      "bottom" : "FeatureExtractor\/MobilenetV2\/expanded_conv_12\/add:0",
      "weights" : {

      },
      "pad_mode" : 1,
      "Nx" : 1,
      "pad_value" : 0,
      "Ny" : 1,
      "n_parallel" : 1
    },
    {
      "alpha" : -1,
      "bottom" : "relu_FeatureExtractor\/MobilenetV2\/expanded_conv_13\/expand\/Relu6:0",
      "weights" : {

      },
      "mode" : 6,
      "top" : "relu_FeatureExtractor\/MobilenetV2\/expanded_conv_13\/expand\/Relu6:0_neg",
      "type" : "activation",
      "name" : "relu_FeatureExtractor\/MobilenetV2\/expanded_conv_13\/expand\/Relu6:0_neg",
      "beta" : 0
    },
    {
      "alpha" : -6,
      "bottom" : "relu_FeatureExtractor\/MobilenetV2\/expanded_conv_13\/expand\/Relu6:0_neg",
      "operation" : 25,
      "weights" : {

      },
      "fused_relu" : 0,
      "top" : "relu_FeatureExtractor\/MobilenetV2\/expanded_conv_13\/expand\/Relu6:0_clip",
      "type" : "elementwise",
      "name" : "relu_FeatureExtractor\/MobilenetV2\/expanded_conv_13\/expand\/Relu6:0_clip",
      "beta" : 0
    },
    {
      "alpha" : -1,
      "bottom" : "relu_FeatureExtractor\/MobilenetV2\/expanded_conv_13\/expand\/Relu6:0_clip",
      "weights" : {

      },
      "mode" : 6,
      "top" : "FeatureExtractor\/MobilenetV2\/expanded_conv_13\/expand\/Relu6:0",
      "type" : "activation",
      "name" : "FeatureExtractor\/MobilenetV2\/expanded_conv_13\/expand\/Relu6:0",
      "beta" : 0
    },
    {
      "pad_r" : 0,
      "fused_relu" : 1,
      "fused_tanh" : 0,
      "pad_fill_mode" : 0,
      "pad_b" : 0,
      "pad_l" : 0,
      "top" : "relu_BoxPredictor_0\/ClassPredictor_depthwise\/Relu6:0",
      "blob_weights" : 163,
      "K" : 576,
      "blob_biases" : 161,
      "name" : "BoxPredictor_0\/ClassPredictor_depthwise\/depthwise:0",
      "has_batch_norm" : 0,
      "type" : "convolution",
      "n_groups" : 576,
      "pad_t" : 0,
      "has_biases" : 1,
      "C" : 576,
      "bottom" : "FeatureExtractor\/MobilenetV2\/expanded_conv_13\/expand\/Relu6:0",
      "weights" : {

      },
      "pad_mode" : 1,
      "Nx" : 3,
      "pad_value" : 0,
      "Ny" : 3,
      "n_parallel" : 1
    },
    {
      "alpha" : -1,
      "bottom" : "relu_BoxPredictor_0\/ClassPredictor_depthwise\/Relu6:0",
      "weights" : {

      },
      "mode" : 6,
      "top" : "relu_BoxPredictor_0\/ClassPredictor_depthwise\/Relu6:0_neg",
      "type" : "activation",
      "name" : "relu_BoxPredictor_0\/ClassPredictor_depthwise\/Relu6:0_neg",
      "beta" : 0
    },
    {
      "alpha" : -6,
      "bottom" : "relu_BoxPredictor_0\/ClassPredictor_depthwise\/Relu6:0_neg",
      "operation" : 25,
      "weights" : {

      },
      "fused_relu" : 0,
      "top" : "relu_BoxPredictor_0\/ClassPredictor_depthwise\/Relu6:0_clip",
      "type" : "elementwise",
      "name" : "relu_BoxPredictor_0\/ClassPredictor_depthwise\/Relu6:0_clip",
      "beta" : 0
    },
    {
      "alpha" : -1,
      "bottom" : "relu_BoxPredictor_0\/ClassPredictor_depthwise\/Relu6:0_clip",
      "weights" : {

      },
      "mode" : 6,
      "top" : "BoxPredictor_0\/ClassPredictor_depthwise\/Relu6:0",
      "type" : "activation",
      "name" : "BoxPredictor_0\/ClassPredictor_depthwise\/Relu6:0",
      "beta" : 0
    },
    {
      "pad_r" : 0,
      "fused_relu" : 0,
      "fused_tanh" : 0,
      "pad_fill_mode" : 0,
      "pad_b" : 0,
      "pad_l" : 0,
      "top" : "BoxPredictor_0\/ClassPredictor\/BiasAdd:0",
      "blob_weights" : 167,
      "K" : 576,
      "blob_biases" : 165,
      "name" : "BoxPredictor_0\/ClassPredictor\/Conv2D:0",
      "has_batch_norm" : 0,
      "type" : "convolution",
      "n_groups" : 1,
      "pad_t" : 0,
      "has_biases" : 1,
      "C" : 273,
      "bottom" : "BoxPredictor_0\/ClassPredictor_depthwise\/Relu6:0",
      "weights" : {

      },
      "pad_mode" : 1,
      "Nx" : 1,
      "pad_value" : 0,
      "Ny" : 1,
      "n_parallel" : 1
    },
    {
      "pad_r" : 0,
      "fused_relu" : 1,
      "fused_tanh" : 0,
      "pad_fill_mode" : 0,
      "pad_b" : 0,
      "pad_l" : 0,
      "top" : "relu_BoxPredictor_0\/BoxEncodingPredictor_depthwise\/Relu6:0",
      "blob_weights" : 171,
      "K" : 576,
      "blob_biases" : 169,
      "name" : "BoxPredictor_0\/BoxEncodingPredictor_depthwise\/depthwise:0",
      "has_batch_norm" : 0,
      "type" : "convolution",
      "n_groups" : 576,
      "pad_t" : 0,
      "has_biases" : 1,
      "C" : 576,
      "bottom" : "FeatureExtractor\/MobilenetV2\/expanded_conv_13\/expand\/Relu6:0",
      "weights" : {

      },
      "pad_mode" : 1,
      "Nx" : 3,
      "pad_value" : 0,
      "Ny" : 3,
      "n_parallel" : 1
    },
    {
      "alpha" : -1,
      "bottom" : "relu_BoxPredictor_0\/BoxEncodingPredictor_depthwise\/Relu6:0",
      "weights" : {

      },
      "mode" : 6,
      "top" : "relu_BoxPredictor_0\/BoxEncodingPredictor_depthwise\/Relu6:0_neg",
      "type" : "activation",
      "name" : "relu_BoxPredictor_0\/BoxEncodingPredictor_depthwise\/Relu6:0_neg",
      "beta" : 0
    },
    {
      "alpha" : -6,
      "bottom" : "relu_BoxPredictor_0\/BoxEncodingPredictor_depthwise\/Relu6:0_neg",
      "operation" : 25,
      "weights" : {

      },
      "fused_relu" : 0,
      "top" : "relu_BoxPredictor_0\/BoxEncodingPredictor_depthwise\/Relu6:0_clip",
      "type" : "elementwise",
      "name" : "relu_BoxPredictor_0\/BoxEncodingPredictor_depthwise\/Relu6:0_clip",
      "beta" : 0
    },
    {
      "alpha" : -1,
      "bottom" : "relu_BoxPredictor_0\/BoxEncodingPredictor_depthwise\/Relu6:0_clip",
      "weights" : {

      },
      "mode" : 6,
      "top" : "BoxPredictor_0\/BoxEncodingPredictor_depthwise\/Relu6:0",
      "type" : "activation",
      "name" : "BoxPredictor_0\/BoxEncodingPredictor_depthwise\/Relu6:0",
      "beta" : 0
    },
    {
      "pad_r" : 0,
      "fused_relu" : 0,
      "fused_tanh" : 0,
      "pad_fill_mode" : 0,
      "pad_b" : 0,
      "pad_l" : 0,
      "top" : "BoxPredictor_0\/BoxEncodingPredictor\/BiasAdd:0",
      "blob_weights" : 175,
      "K" : 576,
      "blob_biases" : 173,
      "name" : "BoxPredictor_0\/BoxEncodingPredictor\/Conv2D:0",
      "has_batch_norm" : 0,
      "type" : "convolution",
      "n_groups" : 1,
      "pad_t" : 0,
      "has_biases" : 1,
      "C" : 12,
      "bottom" : "BoxPredictor_0\/BoxEncodingPredictor_depthwise\/Relu6:0",
      "weights" : {

      },
      "pad_mode" : 1,
      "Nx" : 1,
      "pad_value" : 0,
      "Ny" : 1,
      "n_parallel" : 1
    },
    {
      "pad_r" : 0,
      "fused_relu" : 1,
      "fused_tanh" : 0,
      "pad_fill_mode" : 0,
      "pad_b" : 0,
      "pad_l" : 0,
      "top" : "relu_FeatureExtractor\/MobilenetV2\/expanded_conv_13\/depthwise\/Relu6:0",
      "blob_weights" : 179,
      "K" : 576,
      "blob_biases" : 177,
      "stride_x" : 2,
      "name" : "FeatureExtractor\/MobilenetV2\/expanded_conv_13\/depthwise\/depthwise:0",
      "has_batch_norm" : 0,
      "type" : "convolution",
      "n_groups" : 576,
      "pad_t" : 0,
      "stride_y" : 2,
      "has_biases" : 1,
      "C" : 576,
      "bottom" : "FeatureExtractor\/MobilenetV2\/expanded_conv_13\/expand\/Relu6:0",
      "weights" : {

      },
      "Nx" : 3,
      "pad_mode" : 1,
      "pad_value" : 0,
      "Ny" : 3,
      "n_parallel" : 1
    },
    {
      "alpha" : -1,
      "bottom" : "relu_FeatureExtractor\/MobilenetV2\/expanded_conv_13\/depthwise\/Relu6:0",
      "weights" : {

      },
      "mode" : 6,
      "top" : "relu_FeatureExtractor\/MobilenetV2\/expanded_conv_13\/depthwise\/Relu6:0_neg",
      "type" : "activation",
      "name" : "relu_FeatureExtractor\/MobilenetV2\/expanded_conv_13\/depthwise\/Relu6:0_neg",
      "beta" : 0
    },
    {
      "alpha" : -6,
      "bottom" : "relu_FeatureExtractor\/MobilenetV2\/expanded_conv_13\/depthwise\/Relu6:0_neg",
      "operation" : 25,
      "weights" : {

      },
      "fused_relu" : 0,
      "top" : "relu_FeatureExtractor\/MobilenetV2\/expanded_conv_13\/depthwise\/Relu6:0_clip",
      "type" : "elementwise",
      "name" : "relu_FeatureExtractor\/MobilenetV2\/expanded_conv_13\/depthwise\/Relu6:0_clip",
      "beta" : 0
    },
    {
      "alpha" : -1,
      "bottom" : "relu_FeatureExtractor\/MobilenetV2\/expanded_conv_13\/depthwise\/Relu6:0_clip",
      "weights" : {

      },
      "mode" : 6,
      "top" : "FeatureExtractor\/MobilenetV2\/expanded_conv_13\/depthwise\/Relu6:0",
      "type" : "activation",
      "name" : "FeatureExtractor\/MobilenetV2\/expanded_conv_13\/depthwise\/Relu6:0",
      "beta" : 0
    },
    {
      "pad_r" : 0,
      "fused_relu" : 0,
      "fused_tanh" : 0,
      "pad_fill_mode" : 0,
      "pad_b" : 0,
      "pad_l" : 0,
      "top" : "FeatureExtractor\/MobilenetV2\/expanded_conv_13\/project\/BatchNorm\/batchnorm\/add_1:0",
      "blob_weights" : 183,
      "K" : 576,
      "blob_biases" : 181,
      "name" : "FeatureExtractor\/MobilenetV2\/expanded_conv_13\/project\/BatchNorm\/batchnorm\/mul_1:0",
      "has_batch_norm" : 0,
      "type" : "convolution",
      "n_groups" : 1,
      "pad_t" : 0,
      "has_biases" : 1,
      "C" : 160,
      "bottom" : "FeatureExtractor\/MobilenetV2\/expanded_conv_13\/depthwise\/Relu6:0",
      "weights" : {

      },
      "pad_mode" : 1,
      "Nx" : 1,
      "pad_value" : 0,
      "Ny" : 1,
      "n_parallel" : 1
    },
    {
      "pad_r" : 0,
      "fused_relu" : 1,
      "fused_tanh" : 0,
      "pad_fill_mode" : 0,
      "pad_b" : 0,
      "pad_l" : 0,
      "top" : "relu_FeatureExtractor\/MobilenetV2\/expanded_conv_14\/expand\/Relu6:0",
      "blob_weights" : 187,
      "K" : 160,
      "blob_biases" : 185,
      "name" : "FeatureExtractor\/MobilenetV2\/expanded_conv_14\/expand\/BatchNorm\/batchnorm\/mul_1:0",
      "has_batch_norm" : 0,
      "type" : "convolution",
      "n_groups" : 1,
      "pad_t" : 0,
      "has_biases" : 1,
      "C" : 960,
      "bottom" : "FeatureExtractor\/MobilenetV2\/expanded_conv_13\/project\/BatchNorm\/batchnorm\/add_1:0",
      "weights" : {

      },
      "pad_mode" : 1,
      "Nx" : 1,
      "pad_value" : 0,
      "Ny" : 1,
      "n_parallel" : 1
    },
    {
      "alpha" : -1,
      "bottom" : "relu_FeatureExtractor\/MobilenetV2\/expanded_conv_14\/expand\/Relu6:0",
      "weights" : {

      },
      "mode" : 6,
      "top" : "relu_FeatureExtractor\/MobilenetV2\/expanded_conv_14\/expand\/Relu6:0_neg",
      "type" : "activation",
      "name" : "relu_FeatureExtractor\/MobilenetV2\/expanded_conv_14\/expand\/Relu6:0_neg",
      "beta" : 0
    },
    {
      "alpha" : -6,
      "bottom" : "relu_FeatureExtractor\/MobilenetV2\/expanded_conv_14\/expand\/Relu6:0_neg",
      "operation" : 25,
      "weights" : {

      },
      "fused_relu" : 0,
      "top" : "relu_FeatureExtractor\/MobilenetV2\/expanded_conv_14\/expand\/Relu6:0_clip",
      "type" : "elementwise",
      "name" : "relu_FeatureExtractor\/MobilenetV2\/expanded_conv_14\/expand\/Relu6:0_clip",
      "beta" : 0
    },
    {
      "alpha" : -1,
      "bottom" : "relu_FeatureExtractor\/MobilenetV2\/expanded_conv_14\/expand\/Relu6:0_clip",
      "weights" : {

      },
      "mode" : 6,
      "top" : "FeatureExtractor\/MobilenetV2\/expanded_conv_14\/expand\/Relu6:0",
      "type" : "activation",
      "name" : "FeatureExtractor\/MobilenetV2\/expanded_conv_14\/expand\/Relu6:0",
      "beta" : 0
    },
    {
      "pad_r" : 0,
      "fused_relu" : 1,
      "fused_tanh" : 0,
      "pad_fill_mode" : 0,
      "pad_b" : 0,
      "pad_l" : 0,
      "top" : "relu_FeatureExtractor\/MobilenetV2\/expanded_conv_14\/depthwise\/Relu6:0",
      "blob_weights" : 191,
      "K" : 960,
      "blob_biases" : 189,
      "name" : "FeatureExtractor\/MobilenetV2\/expanded_conv_14\/depthwise\/depthwise:0",
      "has_batch_norm" : 0,
      "type" : "convolution",
      "n_groups" : 960,
      "pad_t" : 0,
      "has_biases" : 1,
      "C" : 960,
      "bottom" : "FeatureExtractor\/MobilenetV2\/expanded_conv_14\/expand\/Relu6:0",
      "weights" : {

      },
      "pad_mode" : 1,
      "Nx" : 3,
      "pad_value" : 0,
      "Ny" : 3,
      "n_parallel" : 1
    },
    {
      "alpha" : -1,
      "bottom" : "relu_FeatureExtractor\/MobilenetV2\/expanded_conv_14\/depthwise\/Relu6:0",
      "weights" : {

      },
      "mode" : 6,
      "top" : "relu_FeatureExtractor\/MobilenetV2\/expanded_conv_14\/depthwise\/Relu6:0_neg",
      "type" : "activation",
      "name" : "relu_FeatureExtractor\/MobilenetV2\/expanded_conv_14\/depthwise\/Relu6:0_neg",
      "beta" : 0
    },
    {
      "alpha" : -6,
      "bottom" : "relu_FeatureExtractor\/MobilenetV2\/expanded_conv_14\/depthwise\/Relu6:0_neg",
      "operation" : 25,
      "weights" : {

      },
      "fused_relu" : 0,
      "top" : "relu_FeatureExtractor\/MobilenetV2\/expanded_conv_14\/depthwise\/Relu6:0_clip",
      "type" : "elementwise",
      "name" : "relu_FeatureExtractor\/MobilenetV2\/expanded_conv_14\/depthwise\/Relu6:0_clip",
      "beta" : 0
    },
    {
      "alpha" : -1,
      "bottom" : "relu_FeatureExtractor\/MobilenetV2\/expanded_conv_14\/depthwise\/Relu6:0_clip",
      "weights" : {

      },
      "mode" : 6,
      "top" : "FeatureExtractor\/MobilenetV2\/expanded_conv_14\/depthwise\/Relu6:0",
      "type" : "activation",
      "name" : "FeatureExtractor\/MobilenetV2\/expanded_conv_14\/depthwise\/Relu6:0",
      "beta" : 0
    },
    {
      "pad_r" : 0,
      "fused_relu" : 0,
      "fused_tanh" : 0,
      "pad_fill_mode" : 0,
      "pad_b" : 0,
      "pad_l" : 0,
      "top" : "FeatureExtractor\/MobilenetV2\/expanded_conv_14\/project\/BatchNorm\/batchnorm\/add_1:0",
      "blob_weights" : 195,
      "K" : 960,
      "blob_biases" : 193,
      "name" : "FeatureExtractor\/MobilenetV2\/expanded_conv_14\/project\/BatchNorm\/batchnorm\/mul_1:0",
      "has_batch_norm" : 0,
      "type" : "convolution",
      "n_groups" : 1,
      "pad_t" : 0,
      "has_biases" : 1,
      "C" : 160,
      "bottom" : "FeatureExtractor\/MobilenetV2\/expanded_conv_14\/depthwise\/Relu6:0",
      "weights" : {

      },
      "pad_mode" : 1,
      "Nx" : 1,
      "pad_value" : 0,
      "Ny" : 1,
      "n_parallel" : 1
    },
    {
      "alpha" : 1,
      "bottom" : "FeatureExtractor\/MobilenetV2\/expanded_conv_14\/project\/BatchNorm\/batchnorm\/add_1:0,FeatureExtractor\/MobilenetV2\/expanded_conv_13\/project\/BatchNorm\/batchnorm\/add_1:0",
      "operation" : 0,
      "weights" : {

      },
      "fused_relu" : 0,
      "top" : "FeatureExtractor\/MobilenetV2\/expanded_conv_14\/add:0",
      "type" : "elementwise",
      "name" : "FeatureExtractor\/MobilenetV2\/expanded_conv_14\/add:0",
      "beta" : 0
    },
    {
      "pad_r" : 0,
      "fused_relu" : 1,
      "fused_tanh" : 0,
      "pad_fill_mode" : 0,
      "pad_b" : 0,
      "pad_l" : 0,
      "top" : "relu_FeatureExtractor\/MobilenetV2\/expanded_conv_15\/expand\/Relu6:0",
      "blob_weights" : 199,
      "K" : 160,
      "blob_biases" : 197,
      "name" : "FeatureExtractor\/MobilenetV2\/expanded_conv_15\/expand\/BatchNorm\/batchnorm\/mul_1:0",
      "has_batch_norm" : 0,
      "type" : "convolution",
      "n_groups" : 1,
      "pad_t" : 0,
      "has_biases" : 1,
      "C" : 960,
      "bottom" : "FeatureExtractor\/MobilenetV2\/expanded_conv_14\/add:0",
      "weights" : {

      },
      "pad_mode" : 1,
      "Nx" : 1,
      "pad_value" : 0,
      "Ny" : 1,
      "n_parallel" : 1
    },
    {
      "alpha" : -1,
      "bottom" : "relu_FeatureExtractor\/MobilenetV2\/expanded_conv_15\/expand\/Relu6:0",
      "weights" : {

      },
      "mode" : 6,
      "top" : "relu_FeatureExtractor\/MobilenetV2\/expanded_conv_15\/expand\/Relu6:0_neg",
      "type" : "activation",
      "name" : "relu_FeatureExtractor\/MobilenetV2\/expanded_conv_15\/expand\/Relu6:0_neg",
      "beta" : 0
    },
    {
      "alpha" : -6,
      "bottom" : "relu_FeatureExtractor\/MobilenetV2\/expanded_conv_15\/expand\/Relu6:0_neg",
      "operation" : 25,
      "weights" : {

      },
      "fused_relu" : 0,
      "top" : "relu_FeatureExtractor\/MobilenetV2\/expanded_conv_15\/expand\/Relu6:0_clip",
      "type" : "elementwise",
      "name" : "relu_FeatureExtractor\/MobilenetV2\/expanded_conv_15\/expand\/Relu6:0_clip",
      "beta" : 0
    },
    {
      "alpha" : -1,
      "bottom" : "relu_FeatureExtractor\/MobilenetV2\/expanded_conv_15\/expand\/Relu6:0_clip",
      "weights" : {

      },
      "mode" : 6,
      "top" : "FeatureExtractor\/MobilenetV2\/expanded_conv_15\/expand\/Relu6:0",
      "type" : "activation",
      "name" : "FeatureExtractor\/MobilenetV2\/expanded_conv_15\/expand\/Relu6:0",
      "beta" : 0
    },
    {
      "pad_r" : 0,
      "fused_relu" : 1,
      "fused_tanh" : 0,
      "pad_fill_mode" : 0,
      "pad_b" : 0,
      "pad_l" : 0,
      "top" : "relu_FeatureExtractor\/MobilenetV2\/expanded_conv_15\/depthwise\/Relu6:0",
      "blob_weights" : 203,
      "K" : 960,
      "blob_biases" : 201,
      "name" : "FeatureExtractor\/MobilenetV2\/expanded_conv_15\/depthwise\/depthwise:0",
      "has_batch_norm" : 0,
      "type" : "convolution",
      "n_groups" : 960,
      "pad_t" : 0,
      "has_biases" : 1,
      "C" : 960,
      "bottom" : "FeatureExtractor\/MobilenetV2\/expanded_conv_15\/expand\/Relu6:0",
      "weights" : {

      },
      "pad_mode" : 1,
      "Nx" : 3,
      "pad_value" : 0,
      "Ny" : 3,
      "n_parallel" : 1
    },
    {
      "alpha" : -1,
      "bottom" : "relu_FeatureExtractor\/MobilenetV2\/expanded_conv_15\/depthwise\/Relu6:0",
      "weights" : {

      },
      "mode" : 6,
      "top" : "relu_FeatureExtractor\/MobilenetV2\/expanded_conv_15\/depthwise\/Relu6:0_neg",
      "type" : "activation",
      "name" : "relu_FeatureExtractor\/MobilenetV2\/expanded_conv_15\/depthwise\/Relu6:0_neg",
      "beta" : 0
    },
    {
      "alpha" : -6,
      "bottom" : "relu_FeatureExtractor\/MobilenetV2\/expanded_conv_15\/depthwise\/Relu6:0_neg",
      "operation" : 25,
      "weights" : {

      },
      "fused_relu" : 0,
      "top" : "relu_FeatureExtractor\/MobilenetV2\/expanded_conv_15\/depthwise\/Relu6:0_clip",
      "type" : "elementwise",
      "name" : "relu_FeatureExtractor\/MobilenetV2\/expanded_conv_15\/depthwise\/Relu6:0_clip",
      "beta" : 0
    },
    {
      "alpha" : -1,
      "bottom" : "relu_FeatureExtractor\/MobilenetV2\/expanded_conv_15\/depthwise\/Relu6:0_clip",
      "weights" : {

      },
      "mode" : 6,
      "top" : "FeatureExtractor\/MobilenetV2\/expanded_conv_15\/depthwise\/Relu6:0",
      "type" : "activation",
      "name" : "FeatureExtractor\/MobilenetV2\/expanded_conv_15\/depthwise\/Relu6:0",
      "beta" : 0
    },
    {
      "pad_r" : 0,
      "fused_relu" : 0,
      "fused_tanh" : 0,
      "pad_fill_mode" : 0,
      "pad_b" : 0,
      "pad_l" : 0,
      "top" : "FeatureExtractor\/MobilenetV2\/expanded_conv_15\/project\/BatchNorm\/batchnorm\/add_1:0",
      "blob_weights" : 207,
      "K" : 960,
      "blob_biases" : 205,
      "name" : "FeatureExtractor\/MobilenetV2\/expanded_conv_15\/project\/BatchNorm\/batchnorm\/mul_1:0",
      "has_batch_norm" : 0,
      "type" : "convolution",
      "n_groups" : 1,
      "pad_t" : 0,
      "has_biases" : 1,
      "C" : 160,
      "bottom" : "FeatureExtractor\/MobilenetV2\/expanded_conv_15\/depthwise\/Relu6:0",
      "weights" : {

      },
      "pad_mode" : 1,
      "Nx" : 1,
      "pad_value" : 0,
      "Ny" : 1,
      "n_parallel" : 1
    },
    {
      "alpha" : 1,
      "bottom" : "FeatureExtractor\/MobilenetV2\/expanded_conv_15\/project\/BatchNorm\/batchnorm\/add_1:0,FeatureExtractor\/MobilenetV2\/expanded_conv_14\/add:0",
      "operation" : 0,
      "weights" : {

      },
      "fused_relu" : 0,
      "top" : "FeatureExtractor\/MobilenetV2\/expanded_conv_15\/add:0",
      "type" : "elementwise",
      "name" : "FeatureExtractor\/MobilenetV2\/expanded_conv_15\/add:0",
      "beta" : 0
    },
    {
      "pad_r" : 0,
      "fused_relu" : 1,
      "fused_tanh" : 0,
      "pad_fill_mode" : 0,
      "pad_b" : 0,
      "pad_l" : 0,
      "top" : "relu_FeatureExtractor\/MobilenetV2\/expanded_conv_16\/expand\/Relu6:0",
      "blob_weights" : 211,
      "K" : 160,
      "blob_biases" : 209,
      "name" : "FeatureExtractor\/MobilenetV2\/expanded_conv_16\/expand\/BatchNorm\/batchnorm\/mul_1:0",
      "has_batch_norm" : 0,
      "type" : "convolution",
      "n_groups" : 1,
      "pad_t" : 0,
      "has_biases" : 1,
      "C" : 960,
      "bottom" : "FeatureExtractor\/MobilenetV2\/expanded_conv_15\/add:0",
      "weights" : {

      },
      "pad_mode" : 1,
      "Nx" : 1,
      "pad_value" : 0,
      "Ny" : 1,
      "n_parallel" : 1
    },
    {
      "alpha" : -1,
      "bottom" : "relu_FeatureExtractor\/MobilenetV2\/expanded_conv_16\/expand\/Relu6:0",
      "weights" : {

      },
      "mode" : 6,
      "top" : "relu_FeatureExtractor\/MobilenetV2\/expanded_conv_16\/expand\/Relu6:0_neg",
      "type" : "activation",
      "name" : "relu_FeatureExtractor\/MobilenetV2\/expanded_conv_16\/expand\/Relu6:0_neg",
      "beta" : 0
    },
    {
      "alpha" : -6,
      "bottom" : "relu_FeatureExtractor\/MobilenetV2\/expanded_conv_16\/expand\/Relu6:0_neg",
      "operation" : 25,
      "weights" : {

      },
      "fused_relu" : 0,
      "top" : "relu_FeatureExtractor\/MobilenetV2\/expanded_conv_16\/expand\/Relu6:0_clip",
      "type" : "elementwise",
      "name" : "relu_FeatureExtractor\/MobilenetV2\/expanded_conv_16\/expand\/Relu6:0_clip",
      "beta" : 0
    },
    {
      "alpha" : -1,
      "bottom" : "relu_FeatureExtractor\/MobilenetV2\/expanded_conv_16\/expand\/Relu6:0_clip",
      "weights" : {

      },
      "mode" : 6,
      "top" : "FeatureExtractor\/MobilenetV2\/expanded_conv_16\/expand\/Relu6:0",
      "type" : "activation",
      "name" : "FeatureExtractor\/MobilenetV2\/expanded_conv_16\/expand\/Relu6:0",
      "beta" : 0
    },
    {
      "pad_r" : 0,
      "fused_relu" : 1,
      "fused_tanh" : 0,
      "pad_fill_mode" : 0,
      "pad_b" : 0,
      "pad_l" : 0,
      "top" : "relu_FeatureExtractor\/MobilenetV2\/expanded_conv_16\/depthwise\/Relu6:0",
      "blob_weights" : 215,
      "K" : 960,
      "blob_biases" : 213,
      "name" : "FeatureExtractor\/MobilenetV2\/expanded_conv_16\/depthwise\/depthwise:0",
      "has_batch_norm" : 0,
      "type" : "convolution",
      "n_groups" : 960,
      "pad_t" : 0,
      "has_biases" : 1,
      "C" : 960,
      "bottom" : "FeatureExtractor\/MobilenetV2\/expanded_conv_16\/expand\/Relu6:0",
      "weights" : {

      },
      "pad_mode" : 1,
      "Nx" : 3,
      "pad_value" : 0,
      "Ny" : 3,
      "n_parallel" : 1
    },
    {
      "alpha" : -1,
      "bottom" : "relu_FeatureExtractor\/MobilenetV2\/expanded_conv_16\/depthwise\/Relu6:0",
      "weights" : {

      },
      "mode" : 6,
      "top" : "relu_FeatureExtractor\/MobilenetV2\/expanded_conv_16\/depthwise\/Relu6:0_neg",
      "type" : "activation",
      "name" : "relu_FeatureExtractor\/MobilenetV2\/expanded_conv_16\/depthwise\/Relu6:0_neg",
      "beta" : 0
    },
    {
      "alpha" : -6,
      "bottom" : "relu_FeatureExtractor\/MobilenetV2\/expanded_conv_16\/depthwise\/Relu6:0_neg",
      "operation" : 25,
      "weights" : {

      },
      "fused_relu" : 0,
      "top" : "relu_FeatureExtractor\/MobilenetV2\/expanded_conv_16\/depthwise\/Relu6:0_clip",
      "type" : "elementwise",
      "name" : "relu_FeatureExtractor\/MobilenetV2\/expanded_conv_16\/depthwise\/Relu6:0_clip",
      "beta" : 0
    },
    {
      "alpha" : -1,
      "bottom" : "relu_FeatureExtractor\/MobilenetV2\/expanded_conv_16\/depthwise\/Relu6:0_clip",
      "weights" : {

      },
      "mode" : 6,
      "top" : "FeatureExtractor\/MobilenetV2\/expanded_conv_16\/depthwise\/Relu6:0",
      "type" : "activation",
      "name" : "FeatureExtractor\/MobilenetV2\/expanded_conv_16\/depthwise\/Relu6:0",
      "beta" : 0
    },
    {
      "pad_r" : 0,
      "fused_relu" : 0,
      "fused_tanh" : 0,
      "pad_fill_mode" : 0,
      "pad_b" : 0,
      "pad_l" : 0,
      "top" : "FeatureExtractor\/MobilenetV2\/expanded_conv_16\/project\/BatchNorm\/batchnorm\/add_1:0",
      "blob_weights" : 219,
      "K" : 960,
      "blob_biases" : 217,
      "name" : "FeatureExtractor\/MobilenetV2\/expanded_conv_16\/project\/BatchNorm\/batchnorm\/mul_1:0",
      "has_batch_norm" : 0,
      "type" : "convolution",
      "n_groups" : 1,
      "pad_t" : 0,
      "has_biases" : 1,
      "C" : 320,
      "bottom" : "FeatureExtractor\/MobilenetV2\/expanded_conv_16\/depthwise\/Relu6:0",
      "weights" : {

      },
      "pad_mode" : 1,
      "Nx" : 1,
      "pad_value" : 0,
      "Ny" : 1,
      "n_parallel" : 1
    },
    {
      "pad_r" : 0,
      "fused_relu" : 1,
      "fused_tanh" : 0,
      "pad_fill_mode" : 0,
      "pad_b" : 0,
      "pad_l" : 0,
      "top" : "relu_FeatureExtractor\/MobilenetV2\/Conv_1\/Relu6:0",
      "blob_weights" : 223,
      "K" : 320,
      "blob_biases" : 221,
      "name" : "FeatureExtractor\/MobilenetV2\/Conv_1\/BatchNorm\/batchnorm\/mul_1:0",
      "has_batch_norm" : 0,
      "type" : "convolution",
      "n_groups" : 1,
      "pad_t" : 0,
      "has_biases" : 1,
      "C" : 1280,
      "bottom" : "FeatureExtractor\/MobilenetV2\/expanded_conv_16\/project\/BatchNorm\/batchnorm\/add_1:0",
      "weights" : {

      },
      "pad_mode" : 1,
      "Nx" : 1,
      "pad_value" : 0,
      "Ny" : 1,
      "n_parallel" : 1
    },
    {
      "alpha" : -1,
      "bottom" : "relu_FeatureExtractor\/MobilenetV2\/Conv_1\/Relu6:0",
      "weights" : {

      },
      "mode" : 6,
      "top" : "relu_FeatureExtractor\/MobilenetV2\/Conv_1\/Relu6:0_neg",
      "type" : "activation",
      "name" : "relu_FeatureExtractor\/MobilenetV2\/Conv_1\/Relu6:0_neg",
      "beta" : 0
    },
    {
      "alpha" : -6,
      "bottom" : "relu_FeatureExtractor\/MobilenetV2\/Conv_1\/Relu6:0_neg",
      "operation" : 25,
      "weights" : {

      },
      "fused_relu" : 0,
      "top" : "relu_FeatureExtractor\/MobilenetV2\/Conv_1\/Relu6:0_clip",
      "type" : "elementwise",
      "name" : "relu_FeatureExtractor\/MobilenetV2\/Conv_1\/Relu6:0_clip",
      "beta" : 0
    },
    {
      "alpha" : -1,
      "bottom" : "relu_FeatureExtractor\/MobilenetV2\/Conv_1\/Relu6:0_clip",
      "weights" : {

      },
      "mode" : 6,
      "top" : "FeatureExtractor\/MobilenetV2\/Conv_1\/Relu6:0",
      "type" : "activation",
      "name" : "FeatureExtractor\/MobilenetV2\/Conv_1\/Relu6:0",
      "beta" : 0
    },
    {
      "pad_r" : 0,
      "fused_relu" : 1,
      "fused_tanh" : 0,
      "pad_fill_mode" : 0,
      "pad_b" : 0,
      "pad_l" : 0,
      "top" : "relu_BoxPredictor_1\/ClassPredictor_depthwise\/Relu6:0",
      "blob_weights" : 227,
      "K" : 1280,
      "blob_biases" : 225,
      "name" : "BoxPredictor_1\/ClassPredictor_depthwise\/depthwise:0",
      "has_batch_norm" : 0,
      "type" : "convolution",
      "n_groups" : 1280,
      "pad_t" : 0,
      "has_biases" : 1,
      "C" : 1280,
      "bottom" : "FeatureExtractor\/MobilenetV2\/Conv_1\/Relu6:0",
      "weights" : {

      },
      "pad_mode" : 1,
      "Nx" : 3,
      "pad_value" : 0,
      "Ny" : 3,
      "n_parallel" : 1
    },
    {
      "alpha" : -1,
      "bottom" : "relu_BoxPredictor_1\/ClassPredictor_depthwise\/Relu6:0",
      "weights" : {

      },
      "mode" : 6,
      "top" : "relu_BoxPredictor_1\/ClassPredictor_depthwise\/Relu6:0_neg",
      "type" : "activation",
      "name" : "relu_BoxPredictor_1\/ClassPredictor_depthwise\/Relu6:0_neg",
      "beta" : 0
    },
    {
      "alpha" : -6,
      "bottom" : "relu_BoxPredictor_1\/ClassPredictor_depthwise\/Relu6:0_neg",
      "operation" : 25,
      "weights" : {

      },
      "fused_relu" : 0,
      "top" : "relu_BoxPredictor_1\/ClassPredictor_depthwise\/Relu6:0_clip",
      "type" : "elementwise",
      "name" : "relu_BoxPredictor_1\/ClassPredictor_depthwise\/Relu6:0_clip",
      "beta" : 0
    },
    {
      "alpha" : -1,
      "bottom" : "relu_BoxPredictor_1\/ClassPredictor_depthwise\/Relu6:0_clip",
      "weights" : {

      },
      "mode" : 6,
      "top" : "BoxPredictor_1\/ClassPredictor_depthwise\/Relu6:0",
      "type" : "activation",
      "name" : "BoxPredictor_1\/ClassPredictor_depthwise\/Relu6:0",
      "beta" : 0
    },
    {
      "pad_r" : 0,
      "fused_relu" : 0,
      "fused_tanh" : 0,
      "pad_fill_mode" : 0,
      "pad_b" : 0,
      "pad_l" : 0,
      "top" : "BoxPredictor_1\/ClassPredictor\/BiasAdd:0",
      "blob_weights" : 231,
      "K" : 1280,
      "blob_biases" : 229,
      "name" : "BoxPredictor_1\/ClassPredictor\/Conv2D:0",
      "has_batch_norm" : 0,
      "type" : "convolution",
      "n_groups" : 1,
      "pad_t" : 0,
      "has_biases" : 1,
      "C" : 546,
      "bottom" : "BoxPredictor_1\/ClassPredictor_depthwise\/Relu6:0",
      "weights" : {

      },
      "pad_mode" : 1,
      "Nx" : 1,
      "pad_value" : 0,
      "Ny" : 1,
      "n_parallel" : 1
    },
    {
      "pad_r" : 0,
      "fused_relu" : 1,
      "fused_tanh" : 0,
      "pad_fill_mode" : 0,
      "pad_b" : 0,
      "pad_l" : 0,
      "top" : "relu_BoxPredictor_1\/BoxEncodingPredictor_depthwise\/Relu6:0",
      "blob_weights" : 235,
      "K" : 1280,
      "blob_biases" : 233,
      "name" : "BoxPredictor_1\/BoxEncodingPredictor_depthwise\/depthwise:0",
      "has_batch_norm" : 0,
      "type" : "convolution",
      "n_groups" : 1280,
      "pad_t" : 0,
      "has_biases" : 1,
      "C" : 1280,
      "bottom" : "FeatureExtractor\/MobilenetV2\/Conv_1\/Relu6:0",
      "weights" : {

      },
      "pad_mode" : 1,
      "Nx" : 3,
      "pad_value" : 0,
      "Ny" : 3,
      "n_parallel" : 1
    },
    {
      "alpha" : -1,
      "bottom" : "relu_BoxPredictor_1\/BoxEncodingPredictor_depthwise\/Relu6:0",
      "weights" : {

      },
      "mode" : 6,
      "top" : "relu_BoxPredictor_1\/BoxEncodingPredictor_depthwise\/Relu6:0_neg",
      "type" : "activation",
      "name" : "relu_BoxPredictor_1\/BoxEncodingPredictor_depthwise\/Relu6:0_neg",
      "beta" : 0
    },
    {
      "alpha" : -6,
      "bottom" : "relu_BoxPredictor_1\/BoxEncodingPredictor_depthwise\/Relu6:0_neg",
      "operation" : 25,
      "weights" : {

      },
      "fused_relu" : 0,
      "top" : "relu_BoxPredictor_1\/BoxEncodingPredictor_depthwise\/Relu6:0_clip",
      "type" : "elementwise",
      "name" : "relu_BoxPredictor_1\/BoxEncodingPredictor_depthwise\/Relu6:0_clip",
      "beta" : 0
    },
    {
      "alpha" : -1,
      "bottom" : "relu_BoxPredictor_1\/BoxEncodingPredictor_depthwise\/Relu6:0_clip",
      "weights" : {

      },
      "mode" : 6,
      "top" : "BoxPredictor_1\/BoxEncodingPredictor_depthwise\/Relu6:0",
      "type" : "activation",
      "name" : "BoxPredictor_1\/BoxEncodingPredictor_depthwise\/Relu6:0",
      "beta" : 0
    },
    {
      "pad_r" : 0,
      "fused_relu" : 0,
      "fused_tanh" : 0,
      "pad_fill_mode" : 0,
      "pad_b" : 0,
      "pad_l" : 0,
      "top" : "BoxPredictor_1\/BoxEncodingPredictor\/BiasAdd:0",
      "blob_weights" : 239,
      "K" : 1280,
      "blob_biases" : 237,
      "name" : "BoxPredictor_1\/BoxEncodingPredictor\/Conv2D:0",
      "has_batch_norm" : 0,
      "type" : "convolution",
      "n_groups" : 1,
      "pad_t" : 0,
      "has_biases" : 1,
      "C" : 24,
      "bottom" : "BoxPredictor_1\/BoxEncodingPredictor_depthwise\/Relu6:0",
      "weights" : {

      },
      "pad_mode" : 1,
      "Nx" : 1,
      "pad_value" : 0,
      "Ny" : 1,
      "n_parallel" : 1
    },
    {
      "pad_r" : 0,
      "fused_relu" : 1,
      "fused_tanh" : 0,
      "pad_fill_mode" : 0,
      "pad_b" : 0,
      "pad_l" : 0,
      "top" : "relu_FeatureExtractor\/MobilenetV2\/layer_19_1_Conv2d_2_1x1_256\/Relu6:0",
      "blob_weights" : 243,
      "K" : 1280,
      "blob_biases" : 241,
      "name" : "FeatureExtractor\/MobilenetV2\/layer_19_1_Conv2d_2_1x1_256\/BatchNorm\/batchnorm\/mul_1:0",
      "has_batch_norm" : 0,
      "type" : "convolution",
      "n_groups" : 1,
      "pad_t" : 0,
      "has_biases" : 1,
      "C" : 256,
      "bottom" : "FeatureExtractor\/MobilenetV2\/Conv_1\/Relu6:0",
      "weights" : {

      },
      "pad_mode" : 1,
      "Nx" : 1,
      "pad_value" : 0,
      "Ny" : 1,
      "n_parallel" : 1
    },
    {
      "alpha" : -1,
      "bottom" : "relu_FeatureExtractor\/MobilenetV2\/layer_19_1_Conv2d_2_1x1_256\/Relu6:0",
      "weights" : {

      },
      "mode" : 6,
      "top" : "relu_FeatureExtractor\/MobilenetV2\/layer_19_1_Conv2d_2_1x1_256\/Relu6:0_neg",
      "type" : "activation",
      "name" : "relu_FeatureExtractor\/MobilenetV2\/layer_19_1_Conv2d_2_1x1_256\/Relu6:0_neg",
      "beta" : 0
    },
    {
      "alpha" : -6,
      "bottom" : "relu_FeatureExtractor\/MobilenetV2\/layer_19_1_Conv2d_2_1x1_256\/Relu6:0_neg",
      "operation" : 25,
      "weights" : {

      },
      "fused_relu" : 0,
      "top" : "relu_FeatureExtractor\/MobilenetV2\/layer_19_1_Conv2d_2_1x1_256\/Relu6:0_clip",
      "type" : "elementwise",
      "name" : "relu_FeatureExtractor\/MobilenetV2\/layer_19_1_Conv2d_2_1x1_256\/Relu6:0_clip",
      "beta" : 0
    },
    {
      "alpha" : -1,
      "bottom" : "relu_FeatureExtractor\/MobilenetV2\/layer_19_1_Conv2d_2_1x1_256\/Relu6:0_clip",
      "weights" : {

      },
      "mode" : 6,
      "top" : "FeatureExtractor\/MobilenetV2\/layer_19_1_Conv2d_2_1x1_256\/Relu6:0",
      "type" : "activation",
      "name" : "FeatureExtractor\/MobilenetV2\/layer_19_1_Conv2d_2_1x1_256\/Relu6:0",
      "beta" : 0
    },
    {
      "pad_r" : 0,
      "fused_relu" : 1,
      "fused_tanh" : 0,
      "pad_fill_mode" : 0,
      "pad_b" : 0,
      "pad_l" : 0,
      "top" : "relu_FeatureExtractor\/MobilenetV2\/layer_19_2_Conv2d_2_3x3_s2_512_depthwise\/Relu6:0",
      "blob_weights" : 247,
      "K" : 256,
      "blob_biases" : 245,
      "stride_x" : 2,
      "name" : "FeatureExtractor\/MobilenetV2\/layer_19_2_Conv2d_2_3x3_s2_512_depthwise\/depthwise:0",
      "has_batch_norm" : 0,
      "type" : "convolution",
      "n_groups" : 256,
      "pad_t" : 0,
      "stride_y" : 2,
      "has_biases" : 1,
      "C" : 256,
      "bottom" : "FeatureExtractor\/MobilenetV2\/layer_19_1_Conv2d_2_1x1_256\/Relu6:0",
      "weights" : {

      },
      "Nx" : 3,
      "pad_mode" : 1,
      "pad_value" : 0,
      "Ny" : 3,
      "n_parallel" : 1
    },
    {
      "alpha" : -1,
      "bottom" : "relu_FeatureExtractor\/MobilenetV2\/layer_19_2_Conv2d_2_3x3_s2_512_depthwise\/Relu6:0",
      "weights" : {

      },
      "mode" : 6,
      "top" : "relu_FeatureExtractor\/MobilenetV2\/layer_19_2_Conv2d_2_3x3_s2_512_depthwise\/Relu6:0_neg",
      "type" : "activation",
      "name" : "relu_FeatureExtractor\/MobilenetV2\/layer_19_2_Conv2d_2_3x3_s2_512_depthwise\/Relu6:0_neg",
      "beta" : 0
    },
    {
      "alpha" : -6,
      "bottom" : "relu_FeatureExtractor\/MobilenetV2\/layer_19_2_Conv2d_2_3x3_s2_512_depthwise\/Relu6:0_neg",
      "operation" : 25,
      "weights" : {

      },
      "fused_relu" : 0,
      "top" : "relu_FeatureExtractor\/MobilenetV2\/layer_19_2_Conv2d_2_3x3_s2_512_depthwise\/Relu6:0_clip",
      "type" : "elementwise",
      "name" : "relu_FeatureExtractor\/MobilenetV2\/layer_19_2_Conv2d_2_3x3_s2_512_depthwise\/Relu6:0_clip",
      "beta" : 0
    },
    {
      "alpha" : -1,
      "bottom" : "relu_FeatureExtractor\/MobilenetV2\/layer_19_2_Conv2d_2_3x3_s2_512_depthwise\/Relu6:0_clip",
      "weights" : {

      },
      "mode" : 6,
      "top" : "FeatureExtractor\/MobilenetV2\/layer_19_2_Conv2d_2_3x3_s2_512_depthwise\/Relu6:0",
      "type" : "activation",
      "name" : "FeatureExtractor\/MobilenetV2\/layer_19_2_Conv2d_2_3x3_s2_512_depthwise\/Relu6:0",
      "beta" : 0
    },
    {
      "pad_r" : 0,
      "fused_relu" : 1,
      "fused_tanh" : 0,
      "pad_fill_mode" : 0,
      "pad_b" : 0,
      "pad_l" : 0,
      "top" : "relu_FeatureExtractor\/MobilenetV2\/layer_19_2_Conv2d_2_3x3_s2_512\/Relu6:0",
      "blob_weights" : 251,
      "K" : 256,
      "blob_biases" : 249,
      "name" : "FeatureExtractor\/MobilenetV2\/layer_19_2_Conv2d_2_3x3_s2_512\/BatchNorm\/batchnorm\/mul_1:0",
      "has_batch_norm" : 0,
      "type" : "convolution",
      "n_groups" : 1,
      "pad_t" : 0,
      "has_biases" : 1,
      "C" : 512,
      "bottom" : "FeatureExtractor\/MobilenetV2\/layer_19_2_Conv2d_2_3x3_s2_512_depthwise\/Relu6:0",
      "weights" : {

      },
      "pad_mode" : 1,
      "Nx" : 1,
      "pad_value" : 0,
      "Ny" : 1,
      "n_parallel" : 1
    },
    {
      "alpha" : -1,
      "bottom" : "relu_FeatureExtractor\/MobilenetV2\/layer_19_2_Conv2d_2_3x3_s2_512\/Relu6:0",
      "weights" : {

      },
      "mode" : 6,
      "top" : "relu_FeatureExtractor\/MobilenetV2\/layer_19_2_Conv2d_2_3x3_s2_512\/Relu6:0_neg",
      "type" : "activation",
      "name" : "relu_FeatureExtractor\/MobilenetV2\/layer_19_2_Conv2d_2_3x3_s2_512\/Relu6:0_neg",
      "beta" : 0
    },
    {
      "alpha" : -6,
      "bottom" : "relu_FeatureExtractor\/MobilenetV2\/layer_19_2_Conv2d_2_3x3_s2_512\/Relu6:0_neg",
      "operation" : 25,
      "weights" : {

      },
      "fused_relu" : 0,
      "top" : "relu_FeatureExtractor\/MobilenetV2\/layer_19_2_Conv2d_2_3x3_s2_512\/Relu6:0_clip",
      "type" : "elementwise",
      "name" : "relu_FeatureExtractor\/MobilenetV2\/layer_19_2_Conv2d_2_3x3_s2_512\/Relu6:0_clip",
      "beta" : 0
    },
    {
      "alpha" : -1,
      "bottom" : "relu_FeatureExtractor\/MobilenetV2\/layer_19_2_Conv2d_2_3x3_s2_512\/Relu6:0_clip",
      "weights" : {

      },
      "mode" : 6,
      "top" : "FeatureExtractor\/MobilenetV2\/layer_19_2_Conv2d_2_3x3_s2_512\/Relu6:0",
      "type" : "activation",
      "name" : "FeatureExtractor\/MobilenetV2\/layer_19_2_Conv2d_2_3x3_s2_512\/Relu6:0",
      "beta" : 0
    },
    {
      "pad_r" : 0,
      "fused_relu" : 1,
      "fused_tanh" : 0,
      "pad_fill_mode" : 0,
      "pad_b" : 0,
      "pad_l" : 0,
      "top" : "relu_BoxPredictor_2\/ClassPredictor_depthwise\/Relu6:0",
      "blob_weights" : 255,
      "K" : 512,
      "blob_biases" : 253,
      "name" : "BoxPredictor_2\/ClassPredictor_depthwise\/depthwise:0",
      "has_batch_norm" : 0,
      "type" : "convolution",
      "n_groups" : 512,
      "pad_t" : 0,
      "has_biases" : 1,
      "C" : 512,
      "bottom" : "FeatureExtractor\/MobilenetV2\/layer_19_2_Conv2d_2_3x3_s2_512\/Relu6:0",
      "weights" : {

      },
      "pad_mode" : 1,
      "Nx" : 3,
      "pad_value" : 0,
      "Ny" : 3,
      "n_parallel" : 1
    },
    {
      "alpha" : -1,
      "bottom" : "relu_BoxPredictor_2\/ClassPredictor_depthwise\/Relu6:0",
      "weights" : {

      },
      "mode" : 6,
      "top" : "relu_BoxPredictor_2\/ClassPredictor_depthwise\/Relu6:0_neg",
      "type" : "activation",
      "name" : "relu_BoxPredictor_2\/ClassPredictor_depthwise\/Relu6:0_neg",
      "beta" : 0
    },
    {
      "alpha" : -6,
      "bottom" : "relu_BoxPredictor_2\/ClassPredictor_depthwise\/Relu6:0_neg",
      "operation" : 25,
      "weights" : {

      },
      "fused_relu" : 0,
      "top" : "relu_BoxPredictor_2\/ClassPredictor_depthwise\/Relu6:0_clip",
      "type" : "elementwise",
      "name" : "relu_BoxPredictor_2\/ClassPredictor_depthwise\/Relu6:0_clip",
      "beta" : 0
    },
    {
      "alpha" : -1,
      "bottom" : "relu_BoxPredictor_2\/ClassPredictor_depthwise\/Relu6:0_clip",
      "weights" : {

      },
      "mode" : 6,
      "top" : "BoxPredictor_2\/ClassPredictor_depthwise\/Relu6:0",
      "type" : "activation",
      "name" : "BoxPredictor_2\/ClassPredictor_depthwise\/Relu6:0",
      "beta" : 0
    },
    {
      "pad_r" : 0,
      "fused_relu" : 0,
      "fused_tanh" : 0,
      "pad_fill_mode" : 0,
      "pad_b" : 0,
      "pad_l" : 0,
      "top" : "BoxPredictor_2\/ClassPredictor\/BiasAdd:0",
      "blob_weights" : 259,
      "K" : 512,
      "blob_biases" : 257,
      "name" : "BoxPredictor_2\/ClassPredictor\/Conv2D:0",
      "has_batch_norm" : 0,
      "type" : "convolution",
      "n_groups" : 1,
      "pad_t" : 0,
      "has_biases" : 1,
      "C" : 546,
      "bottom" : "BoxPredictor_2\/ClassPredictor_depthwise\/Relu6:0",
      "weights" : {

      },
      "pad_mode" : 1,
      "Nx" : 1,
      "pad_value" : 0,
      "Ny" : 1,
      "n_parallel" : 1
    },
    {
      "pad_r" : 0,
      "fused_relu" : 1,
      "fused_tanh" : 0,
      "pad_fill_mode" : 0,
      "pad_b" : 0,
      "pad_l" : 0,
      "top" : "relu_BoxPredictor_2\/BoxEncodingPredictor_depthwise\/Relu6:0",
      "blob_weights" : 263,
      "K" : 512,
      "blob_biases" : 261,
      "name" : "BoxPredictor_2\/BoxEncodingPredictor_depthwise\/depthwise:0",
      "has_batch_norm" : 0,
      "type" : "convolution",
      "n_groups" : 512,
      "pad_t" : 0,
      "has_biases" : 1,
      "C" : 512,
      "bottom" : "FeatureExtractor\/MobilenetV2\/layer_19_2_Conv2d_2_3x3_s2_512\/Relu6:0",
      "weights" : {

      },
      "pad_mode" : 1,
      "Nx" : 3,
      "pad_value" : 0,
      "Ny" : 3,
      "n_parallel" : 1
    },
    {
      "alpha" : -1,
      "bottom" : "relu_BoxPredictor_2\/BoxEncodingPredictor_depthwise\/Relu6:0",
      "weights" : {

      },
      "mode" : 6,
      "top" : "relu_BoxPredictor_2\/BoxEncodingPredictor_depthwise\/Relu6:0_neg",
      "type" : "activation",
      "name" : "relu_BoxPredictor_2\/BoxEncodingPredictor_depthwise\/Relu6:0_neg",
      "beta" : 0
    },
    {
      "alpha" : -6,
      "bottom" : "relu_BoxPredictor_2\/BoxEncodingPredictor_depthwise\/Relu6:0_neg",
      "operation" : 25,
      "weights" : {

      },
      "fused_relu" : 0,
      "top" : "relu_BoxPredictor_2\/BoxEncodingPredictor_depthwise\/Relu6:0_clip",
      "type" : "elementwise",
      "name" : "relu_BoxPredictor_2\/BoxEncodingPredictor_depthwise\/Relu6:0_clip",
      "beta" : 0
    },
    {
      "alpha" : -1,
      "bottom" : "relu_BoxPredictor_2\/BoxEncodingPredictor_depthwise\/Relu6:0_clip",
      "weights" : {

      },
      "mode" : 6,
      "top" : "BoxPredictor_2\/BoxEncodingPredictor_depthwise\/Relu6:0",
      "type" : "activation",
      "name" : "BoxPredictor_2\/BoxEncodingPredictor_depthwise\/Relu6:0",
      "beta" : 0
    },
    {
      "pad_r" : 0,
      "fused_relu" : 0,
      "fused_tanh" : 0,
      "pad_fill_mode" : 0,
      "pad_b" : 0,
      "pad_l" : 0,
      "top" : "BoxPredictor_2\/BoxEncodingPredictor\/BiasAdd:0",
      "blob_weights" : 267,
      "K" : 512,
      "blob_biases" : 265,
      "name" : "BoxPredictor_2\/BoxEncodingPredictor\/Conv2D:0",
      "has_batch_norm" : 0,
      "type" : "convolution",
      "n_groups" : 1,
      "pad_t" : 0,
      "has_biases" : 1,
      "C" : 24,
      "bottom" : "BoxPredictor_2\/BoxEncodingPredictor_depthwise\/Relu6:0",
      "weights" : {

      },
      "pad_mode" : 1,
      "Nx" : 1,
      "pad_value" : 0,
      "Ny" : 1,
      "n_parallel" : 1
    },
    {
      "pad_r" : 0,
      "fused_relu" : 1,
      "fused_tanh" : 0,
      "pad_fill_mode" : 0,
      "pad_b" : 0,
      "pad_l" : 0,
      "top" : "relu_FeatureExtractor\/MobilenetV2\/layer_19_1_Conv2d_3_1x1_128\/Relu6:0",
      "blob_weights" : 271,
      "K" : 512,
      "blob_biases" : 269,
      "name" : "FeatureExtractor\/MobilenetV2\/layer_19_1_Conv2d_3_1x1_128\/BatchNorm\/batchnorm\/mul_1:0",
      "has_batch_norm" : 0,
      "type" : "convolution",
      "n_groups" : 1,
      "pad_t" : 0,
      "has_biases" : 1,
      "C" : 128,
      "bottom" : "FeatureExtractor\/MobilenetV2\/layer_19_2_Conv2d_2_3x3_s2_512\/Relu6:0",
      "weights" : {

      },
      "pad_mode" : 1,
      "Nx" : 1,
      "pad_value" : 0,
      "Ny" : 1,
      "n_parallel" : 1
    },
    {
      "alpha" : -1,
      "bottom" : "relu_FeatureExtractor\/MobilenetV2\/layer_19_1_Conv2d_3_1x1_128\/Relu6:0",
      "weights" : {

      },
      "mode" : 6,
      "top" : "relu_FeatureExtractor\/MobilenetV2\/layer_19_1_Conv2d_3_1x1_128\/Relu6:0_neg",
      "type" : "activation",
      "name" : "relu_FeatureExtractor\/MobilenetV2\/layer_19_1_Conv2d_3_1x1_128\/Relu6:0_neg",
      "beta" : 0
    },
    {
      "alpha" : -6,
      "bottom" : "relu_FeatureExtractor\/MobilenetV2\/layer_19_1_Conv2d_3_1x1_128\/Relu6:0_neg",
      "operation" : 25,
      "weights" : {

      },
      "fused_relu" : 0,
      "top" : "relu_FeatureExtractor\/MobilenetV2\/layer_19_1_Conv2d_3_1x1_128\/Relu6:0_clip",
      "type" : "elementwise",
      "name" : "relu_FeatureExtractor\/MobilenetV2\/layer_19_1_Conv2d_3_1x1_128\/Relu6:0_clip",
      "beta" : 0
    },
    {
      "alpha" : -1,
      "bottom" : "relu_FeatureExtractor\/MobilenetV2\/layer_19_1_Conv2d_3_1x1_128\/Relu6:0_clip",
      "weights" : {

      },
      "mode" : 6,
      "top" : "FeatureExtractor\/MobilenetV2\/layer_19_1_Conv2d_3_1x1_128\/Relu6:0",
      "type" : "activation",
      "name" : "FeatureExtractor\/MobilenetV2\/layer_19_1_Conv2d_3_1x1_128\/Relu6:0",
      "beta" : 0
    },
    {
      "pad_r" : 0,
      "fused_relu" : 1,
      "fused_tanh" : 0,
      "pad_fill_mode" : 0,
      "pad_b" : 0,
      "pad_l" : 0,
      "top" : "relu_FeatureExtractor\/MobilenetV2\/layer_19_2_Conv2d_3_3x3_s2_256_depthwise\/Relu6:0",
      "blob_weights" : 275,
      "K" : 128,
      "blob_biases" : 273,
      "stride_x" : 2,
      "name" : "FeatureExtractor\/MobilenetV2\/layer_19_2_Conv2d_3_3x3_s2_256_depthwise\/depthwise:0",
      "has_batch_norm" : 0,
      "type" : "convolution",
      "n_groups" : 128,
      "pad_t" : 0,
      "stride_y" : 2,
      "has_biases" : 1,
      "C" : 128,
      "bottom" : "FeatureExtractor\/MobilenetV2\/layer_19_1_Conv2d_3_1x1_128\/Relu6:0",
      "weights" : {

      },
      "Nx" : 3,
      "pad_mode" : 1,
      "pad_value" : 0,
      "Ny" : 3,
      "n_parallel" : 1
    },
    {
      "alpha" : -1,
      "bottom" : "relu_FeatureExtractor\/MobilenetV2\/layer_19_2_Conv2d_3_3x3_s2_256_depthwise\/Relu6:0",
      "weights" : {

      },
      "mode" : 6,
      "top" : "relu_FeatureExtractor\/MobilenetV2\/layer_19_2_Conv2d_3_3x3_s2_256_depthwise\/Relu6:0_neg",
      "type" : "activation",
      "name" : "relu_FeatureExtractor\/MobilenetV2\/layer_19_2_Conv2d_3_3x3_s2_256_depthwise\/Relu6:0_neg",
      "beta" : 0
    },
    {
      "alpha" : -6,
      "bottom" : "relu_FeatureExtractor\/MobilenetV2\/layer_19_2_Conv2d_3_3x3_s2_256_depthwise\/Relu6:0_neg",
      "operation" : 25,
      "weights" : {

      },
      "fused_relu" : 0,
      "top" : "relu_FeatureExtractor\/MobilenetV2\/layer_19_2_Conv2d_3_3x3_s2_256_depthwise\/Relu6:0_clip",
      "type" : "elementwise",
      "name" : "relu_FeatureExtractor\/MobilenetV2\/layer_19_2_Conv2d_3_3x3_s2_256_depthwise\/Relu6:0_clip",
      "beta" : 0
    },
    {
      "alpha" : -1,
      "bottom" : "relu_FeatureExtractor\/MobilenetV2\/layer_19_2_Conv2d_3_3x3_s2_256_depthwise\/Relu6:0_clip",
      "weights" : {

      },
      "mode" : 6,
      "top" : "FeatureExtractor\/MobilenetV2\/layer_19_2_Conv2d_3_3x3_s2_256_depthwise\/Relu6:0",
      "type" : "activation",
      "name" : "FeatureExtractor\/MobilenetV2\/layer_19_2_Conv2d_3_3x3_s2_256_depthwise\/Relu6:0",
      "beta" : 0
    },
    {
      "pad_r" : 0,
      "fused_relu" : 1,
      "fused_tanh" : 0,
      "pad_fill_mode" : 0,
      "pad_b" : 0,
      "pad_l" : 0,
      "top" : "relu_FeatureExtractor\/MobilenetV2\/layer_19_2_Conv2d_3_3x3_s2_256\/Relu6:0",
      "blob_weights" : 279,
      "K" : 128,
      "blob_biases" : 277,
      "name" : "FeatureExtractor\/MobilenetV2\/layer_19_2_Conv2d_3_3x3_s2_256\/BatchNorm\/batchnorm\/mul_1:0",
      "has_batch_norm" : 0,
      "type" : "convolution",
      "n_groups" : 1,
      "pad_t" : 0,
      "has_biases" : 1,
      "C" : 256,
      "bottom" : "FeatureExtractor\/MobilenetV2\/layer_19_2_Conv2d_3_3x3_s2_256_depthwise\/Relu6:0",
      "weights" : {

      },
      "pad_mode" : 1,
      "Nx" : 1,
      "pad_value" : 0,
      "Ny" : 1,
      "n_parallel" : 1
    },
    {
      "alpha" : -1,
      "bottom" : "relu_FeatureExtractor\/MobilenetV2\/layer_19_2_Conv2d_3_3x3_s2_256\/Relu6:0",
      "weights" : {

      },
      "mode" : 6,
      "top" : "relu_FeatureExtractor\/MobilenetV2\/layer_19_2_Conv2d_3_3x3_s2_256\/Relu6:0_neg",
      "type" : "activation",
      "name" : "relu_FeatureExtractor\/MobilenetV2\/layer_19_2_Conv2d_3_3x3_s2_256\/Relu6:0_neg",
      "beta" : 0
    },
    {
      "alpha" : -6,
      "bottom" : "relu_FeatureExtractor\/MobilenetV2\/layer_19_2_Conv2d_3_3x3_s2_256\/Relu6:0_neg",
      "operation" : 25,
      "weights" : {

      },
      "fused_relu" : 0,
      "top" : "relu_FeatureExtractor\/MobilenetV2\/layer_19_2_Conv2d_3_3x3_s2_256\/Relu6:0_clip",
      "type" : "elementwise",
      "name" : "relu_FeatureExtractor\/MobilenetV2\/layer_19_2_Conv2d_3_3x3_s2_256\/Relu6:0_clip",
      "beta" : 0
    },
    {
      "alpha" : -1,
      "bottom" : "relu_FeatureExtractor\/MobilenetV2\/layer_19_2_Conv2d_3_3x3_s2_256\/Relu6:0_clip",
      "weights" : {

      },
      "mode" : 6,
      "top" : "FeatureExtractor\/MobilenetV2\/layer_19_2_Conv2d_3_3x3_s2_256\/Relu6:0",
      "type" : "activation",
      "name" : "FeatureExtractor\/MobilenetV2\/layer_19_2_Conv2d_3_3x3_s2_256\/Relu6:0",
      "beta" : 0
    },
    {
      "pad_r" : 0,
      "fused_relu" : 1,
      "fused_tanh" : 0,
      "pad_fill_mode" : 0,
      "pad_b" : 0,
      "pad_l" : 0,
      "top" : "relu_BoxPredictor_3\/ClassPredictor_depthwise\/Relu6:0",
      "blob_weights" : 283,
      "K" : 256,
      "blob_biases" : 281,
      "name" : "BoxPredictor_3\/ClassPredictor_depthwise\/depthwise:0",
      "has_batch_norm" : 0,
      "type" : "convolution",
      "n_groups" : 256,
      "pad_t" : 0,
      "has_biases" : 1,
      "C" : 256,
      "bottom" : "FeatureExtractor\/MobilenetV2\/layer_19_2_Conv2d_3_3x3_s2_256\/Relu6:0",
      "weights" : {

      },
      "pad_mode" : 1,
      "Nx" : 3,
      "pad_value" : 0,
      "Ny" : 3,
      "n_parallel" : 1
    },
    {
      "alpha" : -1,
      "bottom" : "relu_BoxPredictor_3\/ClassPredictor_depthwise\/Relu6:0",
      "weights" : {

      },
      "mode" : 6,
      "top" : "relu_BoxPredictor_3\/ClassPredictor_depthwise\/Relu6:0_neg",
      "type" : "activation",
      "name" : "relu_BoxPredictor_3\/ClassPredictor_depthwise\/Relu6:0_neg",
      "beta" : 0
    },
    {
      "alpha" : -6,
      "bottom" : "relu_BoxPredictor_3\/ClassPredictor_depthwise\/Relu6:0_neg",
      "operation" : 25,
      "weights" : {

      },
      "fused_relu" : 0,
      "top" : "relu_BoxPredictor_3\/ClassPredictor_depthwise\/Relu6:0_clip",
      "type" : "elementwise",
      "name" : "relu_BoxPredictor_3\/ClassPredictor_depthwise\/Relu6:0_clip",
      "beta" : 0
    },
    {
      "alpha" : -1,
      "bottom" : "relu_BoxPredictor_3\/ClassPredictor_depthwise\/Relu6:0_clip",
      "weights" : {

      },
      "mode" : 6,
      "top" : "BoxPredictor_3\/ClassPredictor_depthwise\/Relu6:0",
      "type" : "activation",
      "name" : "BoxPredictor_3\/ClassPredictor_depthwise\/Relu6:0",
      "beta" : 0
    },
    {
      "pad_r" : 0,
      "fused_relu" : 0,
      "fused_tanh" : 0,
      "pad_fill_mode" : 0,
      "pad_b" : 0,
      "pad_l" : 0,
      "top" : "BoxPredictor_3\/ClassPredictor\/BiasAdd:0",
      "blob_weights" : 287,
      "K" : 256,
      "blob_biases" : 285,
      "name" : "BoxPredictor_3\/ClassPredictor\/Conv2D:0",
      "has_batch_norm" : 0,
      "type" : "convolution",
      "n_groups" : 1,
      "pad_t" : 0,
      "has_biases" : 1,
      "C" : 546,
      "bottom" : "BoxPredictor_3\/ClassPredictor_depthwise\/Relu6:0",
      "weights" : {

      },
      "pad_mode" : 1,
      "Nx" : 1,
      "pad_value" : 0,
      "Ny" : 1,
      "n_parallel" : 1
    },
    {
      "pad_r" : 0,
      "fused_relu" : 1,
      "fused_tanh" : 0,
      "pad_fill_mode" : 0,
      "pad_b" : 0,
      "pad_l" : 0,
      "top" : "relu_BoxPredictor_3\/BoxEncodingPredictor_depthwise\/Relu6:0",
      "blob_weights" : 291,
      "K" : 256,
      "blob_biases" : 289,
      "name" : "BoxPredictor_3\/BoxEncodingPredictor_depthwise\/depthwise:0",
      "has_batch_norm" : 0,
      "type" : "convolution",
      "n_groups" : 256,
      "pad_t" : 0,
      "has_biases" : 1,
      "C" : 256,
      "bottom" : "FeatureExtractor\/MobilenetV2\/layer_19_2_Conv2d_3_3x3_s2_256\/Relu6:0",
      "weights" : {

      },
      "pad_mode" : 1,
      "Nx" : 3,
      "pad_value" : 0,
      "Ny" : 3,
      "n_parallel" : 1
    },
    {
      "alpha" : -1,
      "bottom" : "relu_BoxPredictor_3\/BoxEncodingPredictor_depthwise\/Relu6:0",
      "weights" : {

      },
      "mode" : 6,
      "top" : "relu_BoxPredictor_3\/BoxEncodingPredictor_depthwise\/Relu6:0_neg",
      "type" : "activation",
      "name" : "relu_BoxPredictor_3\/BoxEncodingPredictor_depthwise\/Relu6:0_neg",
      "beta" : 0
    },
    {
      "alpha" : -6,
      "bottom" : "relu_BoxPredictor_3\/BoxEncodingPredictor_depthwise\/Relu6:0_neg",
      "operation" : 25,
      "weights" : {

      },
      "fused_relu" : 0,
      "top" : "relu_BoxPredictor_3\/BoxEncodingPredictor_depthwise\/Relu6:0_clip",
      "type" : "elementwise",
      "name" : "relu_BoxPredictor_3\/BoxEncodingPredictor_depthwise\/Relu6:0_clip",
      "beta" : 0
    },
    {
      "alpha" : -1,
      "bottom" : "relu_BoxPredictor_3\/BoxEncodingPredictor_depthwise\/Relu6:0_clip",
      "weights" : {

      },
      "mode" : 6,
      "top" : "BoxPredictor_3\/BoxEncodingPredictor_depthwise\/Relu6:0",
      "type" : "activation",
      "name" : "BoxPredictor_3\/BoxEncodingPredictor_depthwise\/Relu6:0",
      "beta" : 0
    },
    {
      "pad_r" : 0,
      "fused_relu" : 0,
      "fused_tanh" : 0,
      "pad_fill_mode" : 0,
      "pad_b" : 0,
      "pad_l" : 0,
      "top" : "BoxPredictor_3\/BoxEncodingPredictor\/BiasAdd:0",
      "blob_weights" : 295,
      "K" : 256,
      "blob_biases" : 293,
      "name" : "BoxPredictor_3\/BoxEncodingPredictor\/Conv2D:0",
      "has_batch_norm" : 0,
      "type" : "convolution",
      "n_groups" : 1,
      "pad_t" : 0,
      "has_biases" : 1,
      "C" : 24,
      "bottom" : "BoxPredictor_3\/BoxEncodingPredictor_depthwise\/Relu6:0",
      "weights" : {

      },
      "pad_mode" : 1,
      "Nx" : 1,
      "pad_value" : 0,
      "Ny" : 1,
      "n_parallel" : 1
    },
    {
      "pad_r" : 0,
      "fused_relu" : 1,
      "fused_tanh" : 0,
      "pad_fill_mode" : 0,
      "pad_b" : 0,
      "pad_l" : 0,
      "top" : "relu_FeatureExtractor\/MobilenetV2\/layer_19_1_Conv2d_4_1x1_128\/Relu6:0",
      "blob_weights" : 299,
      "K" : 256,
      "blob_biases" : 297,
      "name" : "FeatureExtractor\/MobilenetV2\/layer_19_1_Conv2d_4_1x1_128\/BatchNorm\/batchnorm\/mul_1:0",
      "has_batch_norm" : 0,
      "type" : "convolution",
      "n_groups" : 1,
      "pad_t" : 0,
      "has_biases" : 1,
      "C" : 128,
      "bottom" : "FeatureExtractor\/MobilenetV2\/layer_19_2_Conv2d_3_3x3_s2_256\/Relu6:0",
      "weights" : {

      },
      "pad_mode" : 1,
      "Nx" : 1,
      "pad_value" : 0,
      "Ny" : 1,
      "n_parallel" : 1
    },
    {
      "alpha" : -1,
      "bottom" : "relu_FeatureExtractor\/MobilenetV2\/layer_19_1_Conv2d_4_1x1_128\/Relu6:0",
      "weights" : {

      },
      "mode" : 6,
      "top" : "relu_FeatureExtractor\/MobilenetV2\/layer_19_1_Conv2d_4_1x1_128\/Relu6:0_neg",
      "type" : "activation",
      "name" : "relu_FeatureExtractor\/MobilenetV2\/layer_19_1_Conv2d_4_1x1_128\/Relu6:0_neg",
      "beta" : 0
    },
    {
      "alpha" : -6,
      "bottom" : "relu_FeatureExtractor\/MobilenetV2\/layer_19_1_Conv2d_4_1x1_128\/Relu6:0_neg",
      "operation" : 25,
      "weights" : {

      },
      "fused_relu" : 0,
      "top" : "relu_FeatureExtractor\/MobilenetV2\/layer_19_1_Conv2d_4_1x1_128\/Relu6:0_clip",
      "type" : "elementwise",
      "name" : "relu_FeatureExtractor\/MobilenetV2\/layer_19_1_Conv2d_4_1x1_128\/Relu6:0_clip",
      "beta" : 0
    },
    {
      "alpha" : -1,
      "bottom" : "relu_FeatureExtractor\/MobilenetV2\/layer_19_1_Conv2d_4_1x1_128\/Relu6:0_clip",
      "weights" : {

      },
      "mode" : 6,
      "top" : "FeatureExtractor\/MobilenetV2\/layer_19_1_Conv2d_4_1x1_128\/Relu6:0",
      "type" : "activation",
      "name" : "FeatureExtractor\/MobilenetV2\/layer_19_1_Conv2d_4_1x1_128\/Relu6:0",
      "beta" : 0
    },
    {
      "pad_r" : 0,
      "fused_relu" : 1,
      "fused_tanh" : 0,
      "pad_fill_mode" : 0,
      "pad_b" : 0,
      "pad_l" : 0,
      "top" : "relu_FeatureExtractor\/MobilenetV2\/layer_19_2_Conv2d_4_3x3_s2_256_depthwise\/Relu6:0",
      "blob_weights" : 303,
      "K" : 128,
      "blob_biases" : 301,
      "stride_x" : 2,
      "name" : "FeatureExtractor\/MobilenetV2\/layer_19_2_Conv2d_4_3x3_s2_256_depthwise\/depthwise:0",
      "has_batch_norm" : 0,
      "type" : "convolution",
      "n_groups" : 128,
      "pad_t" : 0,
      "stride_y" : 2,
      "has_biases" : 1,
      "C" : 128,
      "bottom" : "FeatureExtractor\/MobilenetV2\/layer_19_1_Conv2d_4_1x1_128\/Relu6:0",
      "weights" : {

      },
      "Nx" : 3,
      "pad_mode" : 1,
      "pad_value" : 0,
      "Ny" : 3,
      "n_parallel" : 1
    },
    {
      "alpha" : -1,
      "bottom" : "relu_FeatureExtractor\/MobilenetV2\/layer_19_2_Conv2d_4_3x3_s2_256_depthwise\/Relu6:0",
      "weights" : {

      },
      "mode" : 6,
      "top" : "relu_FeatureExtractor\/MobilenetV2\/layer_19_2_Conv2d_4_3x3_s2_256_depthwise\/Relu6:0_neg",
      "type" : "activation",
      "name" : "relu_FeatureExtractor\/MobilenetV2\/layer_19_2_Conv2d_4_3x3_s2_256_depthwise\/Relu6:0_neg",
      "beta" : 0
    },
    {
      "alpha" : -6,
      "bottom" : "relu_FeatureExtractor\/MobilenetV2\/layer_19_2_Conv2d_4_3x3_s2_256_depthwise\/Relu6:0_neg",
      "operation" : 25,
      "weights" : {

      },
      "fused_relu" : 0,
      "top" : "relu_FeatureExtractor\/MobilenetV2\/layer_19_2_Conv2d_4_3x3_s2_256_depthwise\/Relu6:0_clip",
      "type" : "elementwise",
      "name" : "relu_FeatureExtractor\/MobilenetV2\/layer_19_2_Conv2d_4_3x3_s2_256_depthwise\/Relu6:0_clip",
      "beta" : 0
    },
    {
      "alpha" : -1,
      "bottom" : "relu_FeatureExtractor\/MobilenetV2\/layer_19_2_Conv2d_4_3x3_s2_256_depthwise\/Relu6:0_clip",
      "weights" : {

      },
      "mode" : 6,
      "top" : "FeatureExtractor\/MobilenetV2\/layer_19_2_Conv2d_4_3x3_s2_256_depthwise\/Relu6:0",
      "type" : "activation",
      "name" : "FeatureExtractor\/MobilenetV2\/layer_19_2_Conv2d_4_3x3_s2_256_depthwise\/Relu6:0",
      "beta" : 0
    },
    {
      "pad_r" : 0,
      "fused_relu" : 1,
      "fused_tanh" : 0,
      "pad_fill_mode" : 0,
      "pad_b" : 0,
      "pad_l" : 0,
      "top" : "relu_FeatureExtractor\/MobilenetV2\/layer_19_2_Conv2d_4_3x3_s2_256\/Relu6:0",
      "blob_weights" : 307,
      "K" : 128,
      "blob_biases" : 305,
      "name" : "FeatureExtractor\/MobilenetV2\/layer_19_2_Conv2d_4_3x3_s2_256\/BatchNorm\/batchnorm\/mul_1:0",
      "has_batch_norm" : 0,
      "type" : "convolution",
      "n_groups" : 1,
      "pad_t" : 0,
      "has_biases" : 1,
      "C" : 256,
      "bottom" : "FeatureExtractor\/MobilenetV2\/layer_19_2_Conv2d_4_3x3_s2_256_depthwise\/Relu6:0",
      "weights" : {

      },
      "pad_mode" : 1,
      "Nx" : 1,
      "pad_value" : 0,
      "Ny" : 1,
      "n_parallel" : 1
    },
    {
      "alpha" : -1,
      "bottom" : "relu_FeatureExtractor\/MobilenetV2\/layer_19_2_Conv2d_4_3x3_s2_256\/Relu6:0",
      "weights" : {

      },
      "mode" : 6,
      "top" : "relu_FeatureExtractor\/MobilenetV2\/layer_19_2_Conv2d_4_3x3_s2_256\/Relu6:0_neg",
      "type" : "activation",
      "name" : "relu_FeatureExtractor\/MobilenetV2\/layer_19_2_Conv2d_4_3x3_s2_256\/Relu6:0_neg",
      "beta" : 0
    },
    {
      "alpha" : -6,
      "bottom" : "relu_FeatureExtractor\/MobilenetV2\/layer_19_2_Conv2d_4_3x3_s2_256\/Relu6:0_neg",
      "operation" : 25,
      "weights" : {

      },
      "fused_relu" : 0,
      "top" : "relu_FeatureExtractor\/MobilenetV2\/layer_19_2_Conv2d_4_3x3_s2_256\/Relu6:0_clip",
      "type" : "elementwise",
      "name" : "relu_FeatureExtractor\/MobilenetV2\/layer_19_2_Conv2d_4_3x3_s2_256\/Relu6:0_clip",
      "beta" : 0
    },
    {
      "alpha" : -1,
      "bottom" : "relu_FeatureExtractor\/MobilenetV2\/layer_19_2_Conv2d_4_3x3_s2_256\/Relu6:0_clip",
      "weights" : {

      },
      "mode" : 6,
      "top" : "FeatureExtractor\/MobilenetV2\/layer_19_2_Conv2d_4_3x3_s2_256\/Relu6:0",
      "type" : "activation",
      "name" : "FeatureExtractor\/MobilenetV2\/layer_19_2_Conv2d_4_3x3_s2_256\/Relu6:0",
      "beta" : 0
    },
    {
      "pad_r" : 0,
      "fused_relu" : 1,
      "fused_tanh" : 0,
      "pad_fill_mode" : 0,
      "pad_b" : 0,
      "pad_l" : 0,
      "top" : "relu_BoxPredictor_4\/ClassPredictor_depthwise\/Relu6:0",
      "blob_weights" : 311,
      "K" : 256,
      "blob_biases" : 309,
      "name" : "BoxPredictor_4\/ClassPredictor_depthwise\/depthwise:0",
      "has_batch_norm" : 0,
      "type" : "convolution",
      "n_groups" : 256,
      "pad_t" : 0,
      "has_biases" : 1,
      "C" : 256,
      "bottom" : "FeatureExtractor\/MobilenetV2\/layer_19_2_Conv2d_4_3x3_s2_256\/Relu6:0",
      "weights" : {

      },
      "pad_mode" : 1,
      "Nx" : 3,
      "pad_value" : 0,
      "Ny" : 3,
      "n_parallel" : 1
    },
    {
      "alpha" : -1,
      "bottom" : "relu_BoxPredictor_4\/ClassPredictor_depthwise\/Relu6:0",
      "weights" : {

      },
      "mode" : 6,
      "top" : "relu_BoxPredictor_4\/ClassPredictor_depthwise\/Relu6:0_neg",
      "type" : "activation",
      "name" : "relu_BoxPredictor_4\/ClassPredictor_depthwise\/Relu6:0_neg",
      "beta" : 0
    },
    {
      "alpha" : -6,
      "bottom" : "relu_BoxPredictor_4\/ClassPredictor_depthwise\/Relu6:0_neg",
      "operation" : 25,
      "weights" : {

      },
      "fused_relu" : 0,
      "top" : "relu_BoxPredictor_4\/ClassPredictor_depthwise\/Relu6:0_clip",
      "type" : "elementwise",
      "name" : "relu_BoxPredictor_4\/ClassPredictor_depthwise\/Relu6:0_clip",
      "beta" : 0
    },
    {
      "alpha" : -1,
      "bottom" : "relu_BoxPredictor_4\/ClassPredictor_depthwise\/Relu6:0_clip",
      "weights" : {

      },
      "mode" : 6,
      "top" : "BoxPredictor_4\/ClassPredictor_depthwise\/Relu6:0",
      "type" : "activation",
      "name" : "BoxPredictor_4\/ClassPredictor_depthwise\/Relu6:0",
      "beta" : 0
    },
    {
      "pad_r" : 0,
      "fused_relu" : 0,
      "fused_tanh" : 0,
      "pad_fill_mode" : 0,
      "pad_b" : 0,
      "pad_l" : 0,
      "top" : "BoxPredictor_4\/ClassPredictor\/BiasAdd:0",
      "blob_weights" : 315,
      "K" : 256,
      "blob_biases" : 313,
      "name" : "BoxPredictor_4\/ClassPredictor\/Conv2D:0",
      "has_batch_norm" : 0,
      "type" : "convolution",
      "n_groups" : 1,
      "pad_t" : 0,
      "has_biases" : 1,
      "C" : 546,
      "bottom" : "BoxPredictor_4\/ClassPredictor_depthwise\/Relu6:0",
      "weights" : {

      },
      "pad_mode" : 1,
      "Nx" : 1,
      "pad_value" : 0,
      "Ny" : 1,
      "n_parallel" : 1
    },
    {
      "pad_r" : 0,
      "fused_relu" : 1,
      "fused_tanh" : 0,
      "pad_fill_mode" : 0,
      "pad_b" : 0,
      "pad_l" : 0,
      "top" : "relu_BoxPredictor_4\/BoxEncodingPredictor_depthwise\/Relu6:0",
      "blob_weights" : 319,
      "K" : 256,
      "blob_biases" : 317,
      "name" : "BoxPredictor_4\/BoxEncodingPredictor_depthwise\/depthwise:0",
      "has_batch_norm" : 0,
      "type" : "convolution",
      "n_groups" : 256,
      "pad_t" : 0,
      "has_biases" : 1,
      "C" : 256,
      "bottom" : "FeatureExtractor\/MobilenetV2\/layer_19_2_Conv2d_4_3x3_s2_256\/Relu6:0",
      "weights" : {

      },
      "pad_mode" : 1,
      "Nx" : 3,
      "pad_value" : 0,
      "Ny" : 3,
      "n_parallel" : 1
    },
    {
      "alpha" : -1,
      "bottom" : "relu_BoxPredictor_4\/BoxEncodingPredictor_depthwise\/Relu6:0",
      "weights" : {

      },
      "mode" : 6,
      "top" : "relu_BoxPredictor_4\/BoxEncodingPredictor_depthwise\/Relu6:0_neg",
      "type" : "activation",
      "name" : "relu_BoxPredictor_4\/BoxEncodingPredictor_depthwise\/Relu6:0_neg",
      "beta" : 0
    },
    {
      "alpha" : -6,
      "bottom" : "relu_BoxPredictor_4\/BoxEncodingPredictor_depthwise\/Relu6:0_neg",
      "operation" : 25,
      "weights" : {

      },
      "fused_relu" : 0,
      "top" : "relu_BoxPredictor_4\/BoxEncodingPredictor_depthwise\/Relu6:0_clip",
      "type" : "elementwise",
      "name" : "relu_BoxPredictor_4\/BoxEncodingPredictor_depthwise\/Relu6:0_clip",
      "beta" : 0
    },
    {
      "alpha" : -1,
      "bottom" : "relu_BoxPredictor_4\/BoxEncodingPredictor_depthwise\/Relu6:0_clip",
      "weights" : {

      },
      "mode" : 6,
      "top" : "BoxPredictor_4\/BoxEncodingPredictor_depthwise\/Relu6:0",
      "type" : "activation",
      "name" : "BoxPredictor_4\/BoxEncodingPredictor_depthwise\/Relu6:0",
      "beta" : 0
    },
    {
      "pad_r" : 0,
      "fused_relu" : 0,
      "fused_tanh" : 0,
      "pad_fill_mode" : 0,
      "pad_b" : 0,
      "pad_l" : 0,
      "top" : "BoxPredictor_4\/BoxEncodingPredictor\/BiasAdd:0",
      "blob_weights" : 323,
      "K" : 256,
      "blob_biases" : 321,
      "name" : "BoxPredictor_4\/BoxEncodingPredictor\/Conv2D:0",
      "has_batch_norm" : 0,
      "type" : "convolution",
      "n_groups" : 1,
      "pad_t" : 0,
      "has_biases" : 1,
      "C" : 24,
      "bottom" : "BoxPredictor_4\/BoxEncodingPredictor_depthwise\/Relu6:0",
      "weights" : {

      },
      "pad_mode" : 1,
      "Nx" : 1,
      "pad_value" : 0,
      "Ny" : 1,
      "n_parallel" : 1
    },
    {
      "pad_r" : 0,
      "fused_relu" : 1,
      "fused_tanh" : 0,
      "pad_fill_mode" : 0,
      "pad_b" : 0,
      "pad_l" : 0,
      "top" : "relu_FeatureExtractor\/MobilenetV2\/layer_19_1_Conv2d_5_1x1_64\/Relu6:0",
      "blob_weights" : 327,
      "K" : 256,
      "blob_biases" : 325,
      "name" : "FeatureExtractor\/MobilenetV2\/layer_19_1_Conv2d_5_1x1_64\/BatchNorm\/batchnorm\/mul_1:0",
      "has_batch_norm" : 0,
      "type" : "convolution",
      "n_groups" : 1,
      "pad_t" : 0,
      "has_biases" : 1,
      "C" : 64,
      "bottom" : "FeatureExtractor\/MobilenetV2\/layer_19_2_Conv2d_4_3x3_s2_256\/Relu6:0",
      "weights" : {

      },
      "pad_mode" : 1,
      "Nx" : 1,
      "pad_value" : 0,
      "Ny" : 1,
      "n_parallel" : 1
    },
    {
      "alpha" : -1,
      "bottom" : "relu_FeatureExtractor\/MobilenetV2\/layer_19_1_Conv2d_5_1x1_64\/Relu6:0",
      "weights" : {

      },
      "mode" : 6,
      "top" : "relu_FeatureExtractor\/MobilenetV2\/layer_19_1_Conv2d_5_1x1_64\/Relu6:0_neg",
      "type" : "activation",
      "name" : "relu_FeatureExtractor\/MobilenetV2\/layer_19_1_Conv2d_5_1x1_64\/Relu6:0_neg",
      "beta" : 0
    },
    {
      "alpha" : -6,
      "bottom" : "relu_FeatureExtractor\/MobilenetV2\/layer_19_1_Conv2d_5_1x1_64\/Relu6:0_neg",
      "operation" : 25,
      "weights" : {

      },
      "fused_relu" : 0,
      "top" : "relu_FeatureExtractor\/MobilenetV2\/layer_19_1_Conv2d_5_1x1_64\/Relu6:0_clip",
      "type" : "elementwise",
      "name" : "relu_FeatureExtractor\/MobilenetV2\/layer_19_1_Conv2d_5_1x1_64\/Relu6:0_clip",
      "beta" : 0
    },
    {
      "alpha" : -1,
      "bottom" : "relu_FeatureExtractor\/MobilenetV2\/layer_19_1_Conv2d_5_1x1_64\/Relu6:0_clip",
      "weights" : {

      },
      "mode" : 6,
      "top" : "FeatureExtractor\/MobilenetV2\/layer_19_1_Conv2d_5_1x1_64\/Relu6:0",
      "type" : "activation",
      "name" : "FeatureExtractor\/MobilenetV2\/layer_19_1_Conv2d_5_1x1_64\/Relu6:0",
      "beta" : 0
    },
    {
      "pad_r" : 0,
      "fused_relu" : 1,
      "fused_tanh" : 0,
      "pad_fill_mode" : 0,
      "pad_b" : 0,
      "pad_l" : 0,
      "top" : "relu_FeatureExtractor\/MobilenetV2\/layer_19_2_Conv2d_5_3x3_s2_128_depthwise\/Relu6:0",
      "blob_weights" : 331,
      "K" : 64,
      "blob_biases" : 329,
      "stride_x" : 2,
      "name" : "FeatureExtractor\/MobilenetV2\/layer_19_2_Conv2d_5_3x3_s2_128_depthwise\/depthwise:0",
      "has_batch_norm" : 0,
      "type" : "convolution",
      "n_groups" : 64,
      "pad_t" : 0,
      "stride_y" : 2,
      "has_biases" : 1,
      "C" : 64,
      "bottom" : "FeatureExtractor\/MobilenetV2\/layer_19_1_Conv2d_5_1x1_64\/Relu6:0",
      "weights" : {

      },
      "Nx" : 3,
      "pad_mode" : 1,
      "pad_value" : 0,
      "Ny" : 3,
      "n_parallel" : 1
    },
    {
      "alpha" : -1,
      "bottom" : "relu_FeatureExtractor\/MobilenetV2\/layer_19_2_Conv2d_5_3x3_s2_128_depthwise\/Relu6:0",
      "weights" : {

      },
      "mode" : 6,
      "top" : "relu_FeatureExtractor\/MobilenetV2\/layer_19_2_Conv2d_5_3x3_s2_128_depthwise\/Relu6:0_neg",
      "type" : "activation",
      "name" : "relu_FeatureExtractor\/MobilenetV2\/layer_19_2_Conv2d_5_3x3_s2_128_depthwise\/Relu6:0_neg",
      "beta" : 0
    },
    {
      "alpha" : -6,
      "bottom" : "relu_FeatureExtractor\/MobilenetV2\/layer_19_2_Conv2d_5_3x3_s2_128_depthwise\/Relu6:0_neg",
      "operation" : 25,
      "weights" : {

      },
      "fused_relu" : 0,
      "top" : "relu_FeatureExtractor\/MobilenetV2\/layer_19_2_Conv2d_5_3x3_s2_128_depthwise\/Relu6:0_clip",
      "type" : "elementwise",
      "name" : "relu_FeatureExtractor\/MobilenetV2\/layer_19_2_Conv2d_5_3x3_s2_128_depthwise\/Relu6:0_clip",
      "beta" : 0
    },
    {
      "alpha" : -1,
      "bottom" : "relu_FeatureExtractor\/MobilenetV2\/layer_19_2_Conv2d_5_3x3_s2_128_depthwise\/Relu6:0_clip",
      "weights" : {

      },
      "mode" : 6,
      "top" : "FeatureExtractor\/MobilenetV2\/layer_19_2_Conv2d_5_3x3_s2_128_depthwise\/Relu6:0",
      "type" : "activation",
      "name" : "FeatureExtractor\/MobilenetV2\/layer_19_2_Conv2d_5_3x3_s2_128_depthwise\/Relu6:0",
      "beta" : 0
    },
    {
      "pad_r" : 0,
      "fused_relu" : 1,
      "fused_tanh" : 0,
      "pad_fill_mode" : 0,
      "pad_b" : 0,
      "pad_l" : 0,
      "top" : "relu_FeatureExtractor\/MobilenetV2\/layer_19_2_Conv2d_5_3x3_s2_128\/Relu6:0",
      "blob_weights" : 335,
      "K" : 64,
      "blob_biases" : 333,
      "name" : "FeatureExtractor\/MobilenetV2\/layer_19_2_Conv2d_5_3x3_s2_128\/BatchNorm\/batchnorm\/mul_1:0",
      "has_batch_norm" : 0,
      "type" : "convolution",
      "n_groups" : 1,
      "pad_t" : 0,
      "has_biases" : 1,
      "C" : 128,
      "bottom" : "FeatureExtractor\/MobilenetV2\/layer_19_2_Conv2d_5_3x3_s2_128_depthwise\/Relu6:0",
      "weights" : {

      },
      "pad_mode" : 1,
      "Nx" : 1,
      "pad_value" : 0,
      "Ny" : 1,
      "n_parallel" : 1
    },
    {
      "alpha" : -1,
      "bottom" : "relu_FeatureExtractor\/MobilenetV2\/layer_19_2_Conv2d_5_3x3_s2_128\/Relu6:0",
      "weights" : {

      },
      "mode" : 6,
      "top" : "relu_FeatureExtractor\/MobilenetV2\/layer_19_2_Conv2d_5_3x3_s2_128\/Relu6:0_neg",
      "type" : "activation",
      "name" : "relu_FeatureExtractor\/MobilenetV2\/layer_19_2_Conv2d_5_3x3_s2_128\/Relu6:0_neg",
      "beta" : 0
    },
    {
      "alpha" : -6,
      "bottom" : "relu_FeatureExtractor\/MobilenetV2\/layer_19_2_Conv2d_5_3x3_s2_128\/Relu6:0_neg",
      "operation" : 25,
      "weights" : {

      },
      "fused_relu" : 0,
      "top" : "relu_FeatureExtractor\/MobilenetV2\/layer_19_2_Conv2d_5_3x3_s2_128\/Relu6:0_clip",
      "type" : "elementwise",
      "name" : "relu_FeatureExtractor\/MobilenetV2\/layer_19_2_Conv2d_5_3x3_s2_128\/Relu6:0_clip",
      "beta" : 0
    },
    {
      "alpha" : -1,
      "bottom" : "relu_FeatureExtractor\/MobilenetV2\/layer_19_2_Conv2d_5_3x3_s2_128\/Relu6:0_clip",
      "weights" : {

      },
      "mode" : 6,
      "top" : "FeatureExtractor\/MobilenetV2\/layer_19_2_Conv2d_5_3x3_s2_128\/Relu6:0",
      "type" : "activation",
      "name" : "FeatureExtractor\/MobilenetV2\/layer_19_2_Conv2d_5_3x3_s2_128\/Relu6:0",
      "beta" : 0
    },
    {
      "pad_r" : 0,
      "fused_relu" : 1,
      "fused_tanh" : 0,
      "pad_fill_mode" : 0,
      "pad_b" : 0,
      "pad_l" : 0,
      "top" : "relu_BoxPredictor_5\/ClassPredictor_depthwise\/Relu6:0",
      "blob_weights" : 339,
      "K" : 128,
      "blob_biases" : 337,
      "name" : "BoxPredictor_5\/ClassPredictor_depthwise\/depthwise:0",
      "has_batch_norm" : 0,
      "type" : "convolution",
      "n_groups" : 128,
      "pad_t" : 0,
      "has_biases" : 1,
      "C" : 128,
      "bottom" : "FeatureExtractor\/MobilenetV2\/layer_19_2_Conv2d_5_3x3_s2_128\/Relu6:0",
      "weights" : {

      },
      "pad_mode" : 1,
      "Nx" : 3,
      "pad_value" : 0,
      "Ny" : 3,
      "n_parallel" : 1
    },
    {
      "alpha" : -1,
      "bottom" : "relu_BoxPredictor_5\/ClassPredictor_depthwise\/Relu6:0",
      "weights" : {

      },
      "mode" : 6,
      "top" : "relu_BoxPredictor_5\/ClassPredictor_depthwise\/Relu6:0_neg",
      "type" : "activation",
      "name" : "relu_BoxPredictor_5\/ClassPredictor_depthwise\/Relu6:0_neg",
      "beta" : 0
    },
    {
      "alpha" : -6,
      "bottom" : "relu_BoxPredictor_5\/ClassPredictor_depthwise\/Relu6:0_neg",
      "operation" : 25,
      "weights" : {

      },
      "fused_relu" : 0,
      "top" : "relu_BoxPredictor_5\/ClassPredictor_depthwise\/Relu6:0_clip",
      "type" : "elementwise",
      "name" : "relu_BoxPredictor_5\/ClassPredictor_depthwise\/Relu6:0_clip",
      "beta" : 0
    },
    {
      "alpha" : -1,
      "bottom" : "relu_BoxPredictor_5\/ClassPredictor_depthwise\/Relu6:0_clip",
      "weights" : {

      },
      "mode" : 6,
      "top" : "BoxPredictor_5\/ClassPredictor_depthwise\/Relu6:0",
      "type" : "activation",
      "name" : "BoxPredictor_5\/ClassPredictor_depthwise\/Relu6:0",
      "beta" : 0
    },
    {
      "pad_r" : 0,
      "fused_relu" : 0,
      "fused_tanh" : 0,
      "pad_fill_mode" : 0,
      "pad_b" : 0,
      "pad_l" : 0,
      "top" : "BoxPredictor_5\/ClassPredictor\/BiasAdd:0",
      "blob_weights" : 343,
      "K" : 128,
      "blob_biases" : 341,
      "name" : "BoxPredictor_5\/ClassPredictor\/Conv2D:0",
      "has_batch_norm" : 0,
      "type" : "convolution",
      "n_groups" : 1,
      "pad_t" : 0,
      "has_biases" : 1,
      "C" : 546,
      "bottom" : "BoxPredictor_5\/ClassPredictor_depthwise\/Relu6:0",
      "weights" : {

      },
      "pad_mode" : 1,
      "Nx" : 1,
      "pad_value" : 0,
      "Ny" : 1,
      "n_parallel" : 1
    },
    {
      "pad_r" : 0,
      "fused_relu" : 1,
      "fused_tanh" : 0,
      "pad_fill_mode" : 0,
      "pad_b" : 0,
      "pad_l" : 0,
      "top" : "relu_BoxPredictor_5\/BoxEncodingPredictor_depthwise\/Relu6:0",
      "blob_weights" : 347,
      "K" : 128,
      "blob_biases" : 345,
      "name" : "BoxPredictor_5\/BoxEncodingPredictor_depthwise\/depthwise:0",
      "has_batch_norm" : 0,
      "type" : "convolution",
      "n_groups" : 128,
      "pad_t" : 0,
      "has_biases" : 1,
      "C" : 128,
      "bottom" : "FeatureExtractor\/MobilenetV2\/layer_19_2_Conv2d_5_3x3_s2_128\/Relu6:0",
      "weights" : {

      },
      "pad_mode" : 1,
      "Nx" : 3,
      "pad_value" : 0,
      "Ny" : 3,
      "n_parallel" : 1
    },
    {
      "alpha" : -1,
      "bottom" : "relu_BoxPredictor_5\/BoxEncodingPredictor_depthwise\/Relu6:0",
      "weights" : {

      },
      "mode" : 6,
      "top" : "relu_BoxPredictor_5\/BoxEncodingPredictor_depthwise\/Relu6:0_neg",
      "type" : "activation",
      "name" : "relu_BoxPredictor_5\/BoxEncodingPredictor_depthwise\/Relu6:0_neg",
      "beta" : 0
    },
    {
      "alpha" : -6,
      "bottom" : "relu_BoxPredictor_5\/BoxEncodingPredictor_depthwise\/Relu6:0_neg",
      "operation" : 25,
      "weights" : {

      },
      "fused_relu" : 0,
      "top" : "relu_BoxPredictor_5\/BoxEncodingPredictor_depthwise\/Relu6:0_clip",
      "type" : "elementwise",
      "name" : "relu_BoxPredictor_5\/BoxEncodingPredictor_depthwise\/Relu6:0_clip",
      "beta" : 0
    },
    {
      "alpha" : -1,
      "bottom" : "relu_BoxPredictor_5\/BoxEncodingPredictor_depthwise\/Relu6:0_clip",
      "weights" : {

      },
      "mode" : 6,
      "top" : "BoxPredictor_5\/BoxEncodingPredictor_depthwise\/Relu6:0",
      "type" : "activation",
      "name" : "BoxPredictor_5\/BoxEncodingPredictor_depthwise\/Relu6:0",
      "beta" : 0
    },
    {
      "pad_r" : 0,
      "fused_relu" : 0,
      "fused_tanh" : 0,
      "pad_fill_mode" : 0,
      "pad_b" : 0,
      "pad_l" : 0,
      "top" : "BoxPredictor_5\/BoxEncodingPredictor\/BiasAdd:0",
      "blob_weights" : 351,
      "K" : 128,
      "blob_biases" : 349,
      "name" : "BoxPredictor_5\/BoxEncodingPredictor\/Conv2D:0",
      "has_batch_norm" : 0,
      "type" : "convolution",
      "n_groups" : 1,
      "pad_t" : 0,
      "has_biases" : 1,
      "C" : 24,
      "bottom" : "BoxPredictor_5\/BoxEncodingPredictor_depthwise\/Relu6:0",
      "weights" : {

      },
      "pad_mode" : 1,
      "Nx" : 1,
      "pad_value" : 0,
      "Ny" : 1,
      "n_parallel" : 1
    },
    {
      "name" : "BoxPredictor_0\/Reshape:0",
      "bottom" : "BoxPredictor_0\/BoxEncodingPredictor\/BiasAdd:0",
      "dst_n" : 0,
      "mode" : 1,
      "dst_seq" : 1,
      "dst_k" : 4,
      "weights" : {

      },
      "top" : "BoxPredictor_0\/Reshape:0",
      "dst_h" : 1083,
      "dst_w" : 1,
      "type" : "reshape"
    },
    {
      "name" : "BoxPredictor_0\/Reshape_1:0",
      "bottom" : "BoxPredictor_0\/ClassPredictor\/BiasAdd:0",
      "dst_n" : 0,
      "mode" : 1,
      "dst_seq" : 1,
      "dst_k" : 91,
      "weights" : {

      },
      "top" : "BoxPredictor_0\/Reshape_1:0",
      "dst_h" : 1,
      "dst_w" : 1083,
      "type" : "reshape"
    },
    {
      "name" : "BoxPredictor_1\/Reshape:0",
      "bottom" : "BoxPredictor_1\/BoxEncodingPredictor\/BiasAdd:0",
      "dst_n" : 0,
      "mode" : 1,
      "dst_seq" : 1,
      "dst_k" : 4,
      "weights" : {

      },
      "top" : "BoxPredictor_1\/Reshape:0",
      "dst_h" : 600,
      "dst_w" : 1,
      "type" : "reshape"
    },
    {
      "name" : "BoxPredictor_1\/Reshape_1:0",
      "bottom" : "BoxPredictor_1\/ClassPredictor\/BiasAdd:0",
      "dst_n" : 0,
      "mode" : 1,
      "dst_seq" : 1,
      "dst_k" : 91,
      "weights" : {

      },
      "top" : "BoxPredictor_1\/Reshape_1:0",
      "dst_h" : 1,
      "dst_w" : 600,
      "type" : "reshape"
    },
    {
      "name" : "BoxPredictor_2\/Reshape:0",
      "bottom" : "BoxPredictor_2\/BoxEncodingPredictor\/BiasAdd:0",
      "dst_n" : 0,
      "mode" : 1,
      "dst_seq" : 1,
      "dst_k" : 4,
      "weights" : {

      },
      "top" : "BoxPredictor_2\/Reshape:0",
      "dst_h" : 150,
      "dst_w" : 1,
      "type" : "reshape"
    },
    {
      "name" : "BoxPredictor_2\/Reshape_1:0",
      "bottom" : "BoxPredictor_2\/ClassPredictor\/BiasAdd:0",
      "dst_n" : 0,
      "mode" : 1,
      "dst_seq" : 1,
      "dst_k" : 91,
      "weights" : {

      },
      "top" : "BoxPredictor_2\/Reshape_1:0",
      "dst_h" : 1,
      "dst_w" : 150,
      "type" : "reshape"
    },
    {
      "name" : "BoxPredictor_3\/Reshape:0",
      "bottom" : "BoxPredictor_3\/BoxEncodingPredictor\/BiasAdd:0",
      "dst_n" : 0,
      "mode" : 1,
      "dst_seq" : 1,
      "dst_k" : 4,
      "weights" : {

      },
      "top" : "BoxPredictor_3\/Reshape:0",
      "dst_h" : 54,
      "dst_w" : 1,
      "type" : "reshape"
    },
    {
      "name" : "BoxPredictor_3\/Reshape_1:0",
      "bottom" : "BoxPredictor_3\/ClassPredictor\/BiasAdd:0",
      "dst_n" : 0,
      "mode" : 1,
      "dst_seq" : 1,
      "dst_k" : 91,
      "weights" : {

      },
      "top" : "BoxPredictor_3\/Reshape_1:0",
      "dst_h" : 1,
      "dst_w" : 54,
      "type" : "reshape"
    },
    {
      "name" : "BoxPredictor_4\/Reshape:0",
      "bottom" : "BoxPredictor_4\/BoxEncodingPredictor\/BiasAdd:0",
      "dst_n" : 0,
      "mode" : 1,
      "dst_seq" : 1,
      "dst_k" : 4,
      "weights" : {

      },
      "top" : "BoxPredictor_4\/Reshape:0",
      "dst_h" : 24,
      "dst_w" : 1,
      "type" : "reshape"
    },
    {
      "name" : "BoxPredictor_4\/Reshape_1:0",
      "bottom" : "BoxPredictor_4\/ClassPredictor\/BiasAdd:0",
      "dst_n" : 0,
      "mode" : 1,
      "dst_seq" : 1,
      "dst_k" : 91,
      "weights" : {

      },
      "top" : "BoxPredictor_4\/Reshape_1:0",
      "dst_h" : 1,
      "dst_w" : 24,
      "type" : "reshape"
    },
    {
      "name" : "BoxPredictor_5\/Reshape:0",
      "bottom" : "BoxPredictor_5\/BoxEncodingPredictor\/BiasAdd:0",
      "dst_n" : 0,
      "mode" : 1,
      "dst_seq" : 1,
      "dst_k" : 4,
      "weights" : {

      },
      "top" : "BoxPredictor_5\/Reshape:0",
      "dst_h" : 6,
      "dst_w" : 1,
      "type" : "reshape"
    },
    {
      "name" : "BoxPredictor_5\/Reshape_1:0",
      "bottom" : "BoxPredictor_5\/ClassPredictor\/BiasAdd:0",
      "dst_n" : 0,
      "mode" : 1,
      "dst_seq" : 1,
      "dst_k" : 91,
      "weights" : {

      },
      "top" : "BoxPredictor_5\/Reshape_1:0",
      "dst_h" : 1,
      "dst_w" : 6,
      "type" : "reshape"
    },
    {
      "axis_h" : 2,
      "axis_w" : 0,
      "axis_k" : 1,
      "bottom" : "BoxPredictor_0\/Reshape:0",
      "axis_n" : 3,
      "axis_seq" : 4,
      "weights" : {

      },
      "top" : "BoxPredictor_0\/Reshape:0_swap_H_C_0",
      "type" : "transpose",
      "name" : "concat:0_0"
    },
    {
      "axis_h" : 2,
      "axis_w" : 0,
      "axis_k" : 1,
      "bottom" : "BoxPredictor_1\/Reshape:0",
      "axis_n" : 3,
      "axis_seq" : 4,
      "weights" : {

      },
      "top" : "BoxPredictor_1\/Reshape:0_swap_H_C_1",
      "type" : "transpose",
      "name" : "concat:0_1"
    },
    {
      "axis_h" : 2,
      "axis_w" : 0,
      "axis_k" : 1,
      "bottom" : "BoxPredictor_2\/Reshape:0",
      "axis_n" : 3,
      "axis_seq" : 4,
      "weights" : {

      },
      "top" : "BoxPredictor_2\/Reshape:0_swap_H_C_2",
      "type" : "transpose",
      "name" : "concat:0_2"
    },
    {
      "axis_h" : 2,
      "axis_w" : 0,
      "axis_k" : 1,
      "bottom" : "BoxPredictor_3\/Reshape:0",
      "axis_n" : 3,
      "axis_seq" : 4,
      "weights" : {

      },
      "top" : "BoxPredictor_3\/Reshape:0_swap_H_C_3",
      "type" : "transpose",
      "name" : "concat:0_3"
    },
    {
      "axis_h" : 2,
      "axis_w" : 0,
      "axis_k" : 1,
      "bottom" : "BoxPredictor_4\/Reshape:0",
      "axis_n" : 3,
      "axis_seq" : 4,
      "weights" : {

      },
      "top" : "BoxPredictor_4\/Reshape:0_swap_H_C_4",
      "type" : "transpose",
      "name" : "concat:0_4"
    },
    {
      "axis_h" : 2,
      "axis_w" : 0,
      "axis_k" : 1,
      "bottom" : "BoxPredictor_5\/Reshape:0",
      "axis_n" : 3,
      "axis_seq" : 4,
      "weights" : {

      },
      "top" : "BoxPredictor_5\/Reshape:0_swap_H_C_5",
      "type" : "transpose",
      "name" : "concat:0_5"
    },
    {
      "weights" : {

      },
      "top" : "concat:0_concat",
      "type" : "concat",
      "name" : "concat:0_concat",
      "bottom" : "BoxPredictor_0\/Reshape:0_swap_H_C_0,BoxPredictor_1\/Reshape:0_swap_H_C_1,BoxPredictor_2\/Reshape:0_swap_H_C_2,BoxPredictor_3\/Reshape:0_swap_H_C_3,BoxPredictor_4\/Reshape:0_swap_H_C_4,BoxPredictor_5\/Reshape:0_swap_H_C_5"
    },
    {
      "axis_h" : 2,
      "axis_w" : 0,
      "axis_k" : 1,
      "bottom" : "concat:0_concat",
      "axis_n" : 3,
      "axis_seq" : 4,
      "weights" : {

      },
      "top" : "bbox_offsets",
      "type" : "transpose",
      "name" : "concat:0"
    },
    {
      "axis_h" : 1,
      "axis_w" : 2,
      "axis_k" : 0,
      "bottom" : "BoxPredictor_0\/Reshape_1:0",
      "axis_n" : 3,
      "axis_seq" : 4,
      "weights" : {

      },
      "top" : "BoxPredictor_0\/Reshape_1:0_swap_W_C_0",
      "type" : "transpose",
      "name" : "concat_1:0_0"
    },
    {
      "axis_h" : 1,
      "axis_w" : 2,
      "axis_k" : 0,
      "bottom" : "BoxPredictor_1\/Reshape_1:0",
      "axis_n" : 3,
      "axis_seq" : 4,
      "weights" : {

      },
      "top" : "BoxPredictor_1\/Reshape_1:0_swap_W_C_1",
      "type" : "transpose",
      "name" : "concat_1:0_1"
    },
    {
      "axis_h" : 1,
      "axis_w" : 2,
      "axis_k" : 0,
      "bottom" : "BoxPredictor_2\/Reshape_1:0",
      "axis_n" : 3,
      "axis_seq" : 4,
      "weights" : {

      },
      "top" : "BoxPredictor_2\/Reshape_1:0_swap_W_C_2",
      "type" : "transpose",
      "name" : "concat_1:0_2"
    },
    {
      "axis_h" : 1,
      "axis_w" : 2,
      "axis_k" : 0,
      "bottom" : "BoxPredictor_3\/Reshape_1:0",
      "axis_n" : 3,
      "axis_seq" : 4,
      "weights" : {

      },
      "top" : "BoxPredictor_3\/Reshape_1:0_swap_W_C_3",
      "type" : "transpose",
      "name" : "concat_1:0_3"
    },
    {
      "axis_h" : 1,
      "axis_w" : 2,
      "axis_k" : 0,
      "bottom" : "BoxPredictor_4\/Reshape_1:0",
      "axis_n" : 3,
      "axis_seq" : 4,
      "weights" : {

      },
      "top" : "BoxPredictor_4\/Reshape_1:0_swap_W_C_4",
      "type" : "transpose",
      "name" : "concat_1:0_4"
    },
    {
      "axis_h" : 1,
      "axis_w" : 2,
      "axis_k" : 0,
      "bottom" : "BoxPredictor_5\/Reshape_1:0",
      "axis_n" : 3,
      "axis_seq" : 4,
      "weights" : {

      },
      "top" : "BoxPredictor_5\/Reshape_1:0_swap_W_C_5",
      "type" : "transpose",
      "name" : "concat_1:0_5"
    },
    {
      "weights" : {

      },
      "top" : "concat_1:0_concat",
      "type" : "concat",
      "name" : "concat_1:0_concat",
      "bottom" : "BoxPredictor_0\/Reshape_1:0_swap_W_C_0,BoxPredictor_1\/Reshape_1:0_swap_W_C_1,BoxPredictor_2\/Reshape_1:0_swap_W_C_2,BoxPredictor_3\/Reshape_1:0_swap_W_C_3,BoxPredictor_4\/Reshape_1:0_swap_W_C_4,BoxPredictor_5\/Reshape_1:0_swap_W_C_5"
    },
    {
      "axis_h" : 1,
      "axis_w" : 2,
      "axis_k" : 0,
      "bottom" : "concat_1:0_concat",
      "axis_n" : 3,
      "axis_seq" : 4,
      "weights" : {

      },
      "top" : "class_predictions",
      "type" : "transpose",
      "name" : "concat_1:0"
    }
  ]
}